models_weights/SonyAIBORobotSurface1/autoencoder_weight.pth (torch, 178018 bytes, 20 tensors)

tae_encoder.conv_layer.0.weight f4 [50, 1, 10]
0	0x3e9471ab	0.28992972
1	0xbe6d40d8	-0.23169267
2	0xbe24b9d6	-0.16086516
3	0x3e8d63e2	0.27615267
4	0x3e4a9d05	0.1978646
5	0x3e471265	0.1944061
6	0x3e3fb36e	0.1872079
7	0xbe566ef0	-0.20940757
8	0x3df97f29	0.12182457
9	0x3e667e5d	0.22509141
10	0xbe4d3c40	-0.20042515
11	0xbdd340aa	-0.10315068
12	0x3eb21f8b	0.3478969
13	0xbe11d7b9	-0.14242448
14	0xbda9f47a	-0.08298583
15	0xba56df0f	-0.00081966905
16	0xbdfe60d6	-0.12420814
17	0x3dde8f5d	0.10867188
18	0xbda63e06	-0.08117299
19	0x3db8fc62	0.09032513
20	0x3c16673b	0.0091798855
21	0xbe087f07	-0.13329707
22	0xbcc4bc2d	-0.02401551
23	0x3e684889	0.2268392
24	0x3e1acaf1	0.15116479
25	0xbdad395b	-0.08458205
26	0x3d994faa	0.07485898
27	0x3e34dbca	0.17661968
28	0xbe0e0f58	-0.1387304
29	0x3cf638e6	0.030056428
30	0xbe9c98b7	-0.30585262
31	0x3e153a41	0.14573003
32	0xbe98b83f	-0.2982807
33	0xbe152d8f	-0.1456816
34	0xbe44f77b	-0.19235031
35	0xbe7e07e9	-0.24807705
36	0xbe2693aa	-0.16267267
37	0xbea2a95f	-0.31769845
38	0xbe8e6754	-0.27813208
39	0x3d907900	0.07054329
40	0xbe46dc7a	-0.19420043
41	0xbe831c11	-0.2560735
42	0xbca337e3	-0.01992411
43	0xbe0eba0a	-0.13938156
44	0xbebad712	-0.3649221
45	0xbe607787	-0.21920596
46	0x3d4aec42	0.04954172
47	0x3d3735f1	0.044729177
48	0x3d899707	0.06718259
49	0xbba5e7da	-0.0050630393
50	0x3d7a0b68	0.061046034
51	0xbe8f5cbb	-0.28000435
52	0xbe07f382	-0.13276485
53	0x3e95c2ce	0.29250187
54	0xbc58ec06	-0.013239866
55	0x3e1b3066	0.15155181
56	0x3e54d1b4	0.2078312
57	0x3d29fdbf	0.041501757
58	0x3e5a5052	0.21319702
59	0x3e5c2f8b	0.21502511
60	0xbe88cda4	-0.2671939
61	0xbe422198	-0.18958127
62	0xbdeffc4a	-0.11718042
63	0xbdc13dd1	-0.09435619
64	0xbe321dd1	-0.17394187
65	0xbe09c85f	-0.13455342
66	0xbe1a8239	-0.15088739
67	0xbe46ed95	-0.19426568
68	0xbe8e8068	-0.2783234
69	0xbdb59376	-0.088660166
70	0x3d90e58c	0.070750326
71	0xbdb0acae	-0.08626686
72	0x3e0f2af9	0.13981237
73	0x3e2623e4	0.16224629
74	0x3e854f1a	0.26036912
75	0x3e853c65	0.2602264
76	0x3e691bda	0.22764531
77	0x3e29e458	0.16591012
78	0xbe0edfb1	-0.13952519
79	0x3e5a9683	0.21346478
80	0xbe341013	-0.17584257
81	0x3e8391e9	0.25697258
82	0x3e914fb2	0.28381115
83	0xbe541dde	-0.20714518
84	0xbe7e1625	-0.24813135
85	0xbe2c76cd	-0.16842194
86	0xbbf51498	-0.0074792616
87	0xbe50990e	-0.20370886
88	0x3e482f46	0.19549283
89	0xbeb2762f	-0.34855792
90	0x3e6a9f28	0.22912276
91	0xbe60e162	-0.21960977
92	0x3e9c2493	0.30496654
93	0x3d78c422	0.06073392
94	0x3e9ea1d9	0.30982855
95	0x3de115a4	0.10990456
96	0x3d10454b	0.035222333
97	0x3ddac665	0.10682372
98	0x3e9d71a9	0.30750778
99	0xbd8e5750	-0.06950247
100	0xbe8d2d15	-0.27573457
101	0x3dfb69de	0.12276052
102	0xbec374c9	-0.38175038
103	0x3e0614c5	0.1309386
104	0xbe0f1417	-0.13972507
105	0xbd4b2eb4	-0.049605086
106	0xbe8378ed	-0.25678197
107	0xbe90a53f	-0.28251073
108	0x3e7fa169	0.24963917
109	0xbea1113d	-0.31458464
110	0x3e0666d0	0.13125157
111	0xbc8a3a9e	-0.016873654
112	0x3dbd25bc	0.09235713
113	0xbcf1050c	-0.029421352
114	0x3e07e433	0.13270645
115	0xbea2a2ba	-0.31764776
116	0x3d0505f4	0.03247638
117	0x3e3cbb4f	0.18430828
118	0xbea17d1e	-0.3154077
119	0x3dbd2c11	0.092369206
120	0x3dff68ba	0.12471147
121	0x3e7069cd	0.2347786
122	0xbe9084c1	-0.28226283
123	0xbe6afcd4	-0.22948009
124	0xbdc626a9	-0.096753426
125	0x3e343a49	0.17600359
126	0xbd6ff32a	-0.05858151
127	0xbe7caf68	-0.24676287
128	0xbd5fd996	-0.054650865
129	0xbe248761	-0.16067268
130	0xbb8baf6b	-0.004262855
131	0x3d34dde6	0.04415693
132	0xbe832832	-0.25616604
133	0x3e9121ca	0.28346092
134	0xbe1d67f8	-0.15371692
135	0x3bdc43f0	0.006721966
136	0xbd8a5aae	-0.06755577
137	0xbde91184	-0.11380294
138	0xbe1fc49b	-0.15602343
139	0x3d5471c6	0.051866315
140	0x3e5381fd	0.20655055
141	0x3e6b76ea	0.22994581
142	0xbe02d214	-0.12775451
143	0xbe7706fd	-0.2412376
144	0x3d914d95	0.07094876
145	0xbd90eca4	-0.070763856
146	0xbd2ccec3	-0.04218937
147	0xbe0c2aea	-0.13688245
148	0x3b20da0f	0.0024544036
149	0xbb21bc83	-0.0024679012
150	0x3ddb8a85	0.1071978
151	0xbbc5d221	-0.006037012
152	0xbe450af2	-0.19242457
153	0x3d1bdaf2	0.0380506
154	0xbd841329	-0.06448967
155	0x3a8627eb	0.0010235285
156	0x3dcb34a4	0.0992215
157	0xbe0efa8b	-0.13962762
158	0xbdeb4575	-0.11487857
159	0x3e4ed218	0.20197332
160	0xbe73f8bb	-0.23825352
161	0x3d841653	0.064495705
162	0xbe311998	-0.1729492
163	0x3e77c6ce	0.24196932
164	0xbdb64272	-0.08899392
165	0xbd9acfdc	-0.07559177
166	0xbe0636c4	-0.13106829
167	0xbdc86400	-0.097846985
168	0xbe6365a0	-0.22206736
169	0x3d29d1ad	0.041459728
170	0xbd0b3776	-0.03398844
171	0x3e62b7b9	0.22140397
172	0xbe9bc7e2	-0.30425936
173	0xbd1f3235	-0.03886624
174	0x3e206a9b	0.15665667
175	0xbd0c15e3	-0.03420056
176	0xbe7f3a9e	-0.24924704
177	0xbdeda93f	-0.11604547
178	0x3b6e3fd3	0.003635396
179	0x3d724349	0.0591462
180	0xbbad4577	-0.005287822
181	0x3cea9a46	0.028638016
182	0xbb667230	-0.0035163276
183	0x3e733e4e	0.23754236
184	0x3e7c4c53	0.2463849
185	0xbd21605d	-0.03939854
186	0x3ea2127a	0.31654721
187	0x3d828ea1	0.063748606
188	0x3e82e9d2	0.25569016
189	0xbdba0e70	-0.09084785
190	0x3ea6adcc	0.32554471
191	0xbe81dcc4	-0.25363743
192	0x3ddee80c	0.10884103
193	0x3e845e67	0.25853273
194	0x3e0fdd31	0.14049222
195	0xbe0d0d1f	-0.13774537
196	0x3e71931c	0.23591274
197	0x3e0998a4	0.13437134
198	0x3e548886	0.20755205
199	0xbd191f1c	-0.037383184
200	0xbdf91477	-0.121621065
201	0x3eacf64e	0.33781666
202	0xbdb48e4f	-0.08816206
203	0x3e0538f9	0.13010015
204	0xbe80b28e	-0.25136226
205	0x3d498196	0.04919585
206	0xbdfd72cb	-0.12375411
207	0x3e3cccd9	0.18437518
208	0x3d196ad2	0.037455387
209	0xbe4528ff	-0.1925392
210	0xbe5b716a	-0.21429983
211	0xbe89a560	-0.26883984
212	0x3d68a2b3	0.056795787
213	0xbe4a72ee	-0.19770405
214	0x3df38f2f	0.118925445
215	0xbea568ab	-0.32306418
216	0xbe54e5c5	-0.20790775
217	0xbe418b90	-0.18900895
218	0x3c864cda	0.016394068
219	0xbe46a0ba	-0.1939725
220	0xbcb1e839	-0.021717178
221	0xbdde8d97	-0.1086685
222	0xbe12647e	-0.14296147
223	0xbd057ca5	-0.032589573
224	0x3d094d06	0.03352072
225	0xbe8a2955	-0.2698466
226	0xbe3f7311	-0.18696238
227	0xbe86b9ab	-0.26313528
228	0x3dfdaf2a	0.123869255
229	0x3d805955	0.06267039
230	0xbd19c0b1	-0.03753728
231	0xbe355c95	-0.17711098
232	0x3e2767b8	0.1634816
233	0xbde7815c	-0.1130397
234	0x3c9badc9	0.019003766
235	0xbe7c3bb3	-0.24632148
236	0x3d880303	0.066411994
237	0xbe32e670	-0.17470717
238	0xbdce628d	-0.10077391
239	0x3cce6e7d	0.02519917
240	0x3e7589d1	0.23978354
241	0xbdc2039e	-0.09473346
242	0x3dddce82	0.10830404
243	0xbe062f4d	-0.13103981
244	0x3dac9184	0.084261924
245	0xbc4af87d	-0.012388346
246	0x3c24326e	0.010021789
247	0x3e04e4f2	0.1297796
248	0xbe2ce7bd	-0.16885276
249	0x3e5e5a12	0.21714047
250	0x3d3f4b38	0.046702594
251	0xbe01d97a	-0.12680617
252	0x3e50e077	0.20398127
253	0xbe5e4b8d	-0.21708508
254	0x3e8b2e4f	0.27183768
255	0xbe6eeb11	-0.23331858

tae_encoder.conv_layer.0.bias f4 [50]
0	0xbd86ce3a	-0.06582303
1	0xbe9be235	-0.3044602
2	0xbd0491ff	-0.032365795
3	0xbdc96322	-0.09833361
4	0x3d97ff6f	0.07421767
5	0x3e8894bf	0.26675984
6	0x3e7d14fa	0.24715033
7	0x3e1d06d7	0.1533464
8	0x3c9a33c5	0.018823514
9	0xbe8fa630	-0.28056479
10	0xbe996411	-0.29959157
11	0xbe6b3765	-0.2297035
12	0xbdb1b5c9	-0.08677251
13	0xbdc4177b	-0.09574791
14	0x3cb1f57b	0.0217235
15	0xbc40b9b0	-0.011763021
16	0xbc27848c	-0.010224473
17	0xbe8c3cd3	-0.27390155
18	0x3dfb3321	0.122656114
19	0x3b8b4fdf	0.0042514647
20	0xbe654d26	-0.22392711
21	0x3ce0264a	0.027362008
22	0xbdd94272	-0.106083766
23	0xbca79f29	-0.020461636
24	0xbea3c54e	-0.3198647
25	0xbec9a4e7	-0.39383623
26	0xbe9c5187	-0.3053095
27	0xbe8089c7	-0.25105116
28	0x3e934cb9	0.28769472
29	0x3e024abe	0.12723824
30	0xbe9a5ba9	-0.30148056
31	0xbdfbd897	-0.122971706
32	0x3e86d377	0.2633321
33	0xbec28113	-0.379891
34	0xbe8798d1	-0.26483777
35	0xbe6f51fa	-0.23371115
36	0xbdd551c9	-0.1041599
37	0x3b5fc736	0.0034145839
38	0xbea303f0	-0.31838942
39	0x3d2e2601	0.042516712
40	0x3dfcfa92	0.1235248
41	0x3e3a0344	0.18165308
42	0x3d389e19	0.04507265
43	0xbe1bf46d	-0.1522996
44	0xbe3bcc08	-0.1833955
45	0xbe3868df	-0.18008755
46	0x3dc5fd0c	0.096674055
47	0xbdb675d2	-0.08909191
48	0x3e6043a2	0.219008
49	0xbe863968	-0.26215672

tae_encoder.lstm_1.weight_ih_l0 f4 [200, 50]
0	0xbbdb3e43	-0.006690772
1	0xbc1b506f	-0.009479626
2	0xbd4129a3	-0.04715885
3	0x3d58759f	0.052846547
4	0x3d470474	0.04858823
5	0xbd639b8b	-0.05556826
6	0xbcaa0f8d	-0.020759368
7	0xbd176fad	-0.036971737
8	0x3d877f79	0.0661611
9	0x3d0ed6e2	0.034872897
10	0x3deda47f	0.11603641
11	0xbdd87450	-0.1056906
12	0x3d67f841	0.056633238
13	0xbdb8f616	-0.09031312
14	0xbb0138ff	-0.001971781
15	0xbd5f8299	-0.054567907
16	0xbd293e8e	-0.041319422
17	0x3c9bf134	0.019035913
18	0x3df3cbe5	0.11904124
19	0xbc0bd8fb	-0.008535619
20	0xbd77c34d	-0.060488988
21	0x3d03e970	0.032205045
22	0x3d987523	0.07444217
23	0x3951844e	0.0001998108
24	0x3d9a37c3	0.07530167
25	0xbca40bf3	-0.02002523
26	0xbddb2a99	-0.10701484
27	0xbe10e9cc	-0.14151686
28	0xbda76ac6	-0.08174662
29	0x3d80aeaf	0.06283318
30	0x3df89f4d	0.12139759
31	0xbdb725f5	-0.089427866
32	0xbde660aa	-0.11248906
33	0x3d239cfa	0.039944626
34	0x3c4b364b	0.012403081
35	0xbd660deb	-0.056165617
36	0xbd1d8430	-0.038456142
37	0xbe096187	-0.1341611
38	0x3df30250	0.118656754
39	0x3ce74ada	0.028233934
40	0xbd518c77	-0.05115935
41	0x3d655493	0.05598886
42	0xbd9474d8	-0.07248849
43	0x3d80b56a	0.06284602
44	0x3db7362d	0.0894588
45	0xbdbb023f	-0.09131288
46	0x3ae28aa8	0.0017283754
47	0x3da82d7b	0.082118
48	0xba39e547	-0.0007091355
49	0xbdcd9c28	-0.1003955
50	0xbd4f9259	-0.050676677
51	0x3d86975a	0.06571837
52	0xbe1e2779	-0.15444745
53	0xbc9cb100	-0.019127369
54	0xbcbef848	-0.02331175
55	0xbdb6219b	-0.088931285
56	0x3e05374b	0.13009374
57	0x3cf73e5f	0.030181108
58	0x3c757f17	0.014983914
59	0xbd72fa33	-0.05932064
60	0xbcb1e5cf	-0.021716027
61	0xbc801d20	-0.015638888
62	0x3df14268	0.11780244
63	0xbdbff7c0	-0.093734264
64	0xbde0a3f0	-0.109687686
65	0xbd9e45cd	-0.07728157
66	0xbae60b96	-0.001755106
67	0x3d8f7d1b	0.07006284
68	0x3d8a195e	0.0674312
69	0xbc7e4dcb	-0.015521477
70	0x3deb7363	0.11496618
71	0x3d0bfaac	0.034174606
72	0x3ce3b401	0.027795793
73	0x3da80186	0.082034156
74	0xbd578c17	-0.052623834
75	0x3d75af92	0.05998189
76	0x3e1225a7	0.14272176
77	0xbb48b57d	-0.0030625754
78	0x3cace266	0.021104049
79	0x3c9e79a7	0.019345118
80	0x3c222d62	0.009898515
81	0x3dd80c67	0.105492406
82	0x3c7d9a73	0.015478718
83	0xbd947f10	-0.07250798
84	0xbd896127	-0.067079835
85	0x3d01c6a4	0.03168358
86	0xbcff5543	-0.031168586
87	0x3e1cf415	0.15327485
88	0x3d59c3cc	0.053165242
89	0xbd27a04a	-0.040924348
90	0x3d38069a	0.04492817
91	0x3dbef9c1	0.093249805
92	0xbd4b487c	-0.049629673
93	0xbd042cec	-0.032269403
94	0x3d065745	0.03279807
95	0x3d67f11c	0.056626424
96	0x3b5aea3d	0.0033403777
97	0x3dcf489b	0.1012127
98	0xbd9e4b70	-0.07729232
99	0x3e0f2045	0.13977154
100	0x3e4bc3a8	0.19898856
101	0xbccd07a1	-0.025028052
102	0x3d7772d1	0.06041223
103	0x3d54b8df	0.05193412
104	0xbcb96bb5	-0.022634367
105	0x3da5bba0	0.08092427
106	0x3df75a5e	0.12077783
107	0x3d7135b4	0.058889106
108	0xbd469f84	-0.04849197
109	0x3d888768	0.06666452
110	0x3dc644b3	0.09681072
111	0xbd38d9c4	-0.045129552
112	0x3e1ebbef	0.15501378
113	0x3c88a7c6	0.016681563
114	0xbc86ce13	-0.016455686
115	0x3d90ff06	0.07079892
116	0x3c392d01	0.011302234
117	0x3dae7368	0.08518106
118	0x3d86744b	0.0656515
119	0x3d12a855	0.035805065
120	0x3e207633	0.1567009
121	0x3d41da16	0.047327124
122	0x3c188660	0.009309381
123	0x3d893440	0.06699419
124	0xbd8e6b84	-0.06954101
125	0x3e14e1f5	0.14539321
126	0xbac491b8	-0.0014997041
127	0x3df3b772	0.11900224
128	0xbc7780d2	-0.015106397
129	0x3e0621de	0.13098857
130	0xbd0f1d8a	-0.03494028
131	0x3e10cf8c	0.14141673
132	0x3e4fcf80	0.20293999
133	0x3dc40e84	0.09573081
134	0xbbcc785a	-0.006239933
135	0xbdd44d9e	-0.10366367
136	0x3e039ef6	0.12853608
137	0x3e305e97	0.17223583
138	0x3d463b18	0.0483962
139	0xbd914e1b	-0.070949756
140	0xbd6a319c	-0.057176217
141	0x3e1afc42	0.15135291
142	0x3e4ff02e	0.20306465
143	0x3d99bb01	0.07506371
144	0x3dbafd4d	0.091303445
145	0xbd0ac420	-0.033878446
146	0x3c87fdb1	0.016600462
147	0x3e048319	0.12940635
148	0x3da5fdac	0.08105025
149	0xbce6436c	-0.028108321
150	0xbdf7122a	-0.120640114
151	0xbe3e2757	-0.18569694
152	0xbddd816c	-0.10815701
153	0xbdbcc9e6	-0.092181966
154	0xbe144192	-0.14478138
155	0xbdb2330a	-0.08701141
156	0xbe1c57ad	-0.1526782
157	0xbbab46d5	-0.0052269497
158	0xbc46aad1	-0.012125687
159	0xbda70999	-0.081561275
160	0xbd942ba8	-0.07234889
161	0xbd25ede5	-0.040510077
162	0x3ccf3792	0.025295053
163	0xbcf2801b	-0.029602101
164	0x3d29917e	0.041398518
165	0x3dd38140	0.10327387
166	0xbe02c52a	-0.12770525
167	0xbc4d4340	-0.012528241
168	0x3db3b35d	0.08774445
169	0x3dc39ffc	0.09551999
170	0xbcefda8a	-0.029279012
171	0xbe361d77	-0.17784677
172	0xbe3779e4	-0.17917591
173	0x3d8fb9c3	0.07017853
174	0x3de3d067	0.11123734
175	0x3dbb3d15	0.0914251
176	0xbc6e1e82	-0.014533641
177	0x3d6c242a	0.057651676
178	0xb9aba364	-0.00032737397
179	0x3db45f98	0.088072956
180	0x3cad2556	0.021135967
181	0x3c7c58c1	0.01540202
182	0x3db0d320	0.08634019
183	0xbdbef0b3	-0.093232535
184	0x3c94ba60	0.018155277
185	0xbe1e0b16	-0.15433916
186	0xbd8af916	-0.067857906
187	0x3c836b67	0.016042424
188	0x3cdb8948	0.02679886
189	0x3d94ac48	0.072594225
190	0xbc58207d	-0.01319134
191	0xbc308df5	-0.010776033
192	0xbd2d978d	-0.04238086
193	0x3d594441	0.053043608
194	0xbd869f1c	-0.065733165
195	0xbc873e20	-0.016509116
196	0xbd96fc56	-0.07372348
197	0x3cedce9c	0.029029183
198	0xbca5d185	-0.020241508
199	0x3d84642c	0.06464419
200	0x3ccf41ff	0.025300024
201	0xbdeb2a99	-0.11482734
202	0xbcd9b582	-0.026575807
203	0xbdfc346c	-0.12314686
204	0x3e09f687	0.13472949
205	0xbc594fda	-0.013263667
206	0x3b893d22	0.004188196
207	0xbdbc6cae	-0.092004165
208	0x3bca7292	0.0061782086
209	0x3dc345d4	0.09534803
210	0xbe0f5d08	-0.14000332
211	0x3c6926bd	0.014230427
212	0xbe128490	-0.14308381
213	0x3db556cf	0.08854448
214	0x3cb650e7	0.022255374
215	0x3c83aa2f	0.01607236
216	0x3cbdc09c	0.023163132
217	0xbd4d1ecf	-0.05007821
218	0xbdf581b9	-0.11987633
219	0xbdd87cb5	-0.10570661
220	0xbe0210fc	-0.12701792
221	0x3db96450	0.09052336
222	0x3dd14cd0	0.10219729
223	0x3d29d627	0.041463997
224	0xbce66652	-0.028124962
225	0xbe2077b0	-0.15670657
226	0xbdda3cd2	-0.10656132
227	0x3d65aedb	0.05607496
228	0xbd845d8b	-0.064631544
229	0xbdcea2d5	-0.100896515
230	0xbc9b935a	-0.018991161
231	0xbc83ab79	-0.016072975
232	0x3d138d26	0.03602328
233	0xbd94bc41	-0.07262469
234	0x3dbba322	0.091619745
235	0x3d39a646	0.045324586
236	0xbe06014d	-0.13086434
237	0xbc0cec98	-0.00860133
238	0x3e18149e	0.14851615
239	0xbe13285e	-0.14370868
240	0xbca9317f	-0.020653484
241	0x3d9359a7	0.07194834
242	0xbde27b7b	-0.11058708
243	0x3c8d97e1	0.017284336
244	0xbd9f4f44	-0.077787906
245	0xbc65aefd	-0.014018771
246	0x3d1d7288	0.038439304
247	0xbe1112b1	-0.14167286
248	0xbdb8939c	-0.09012529
249	0x3d9f8a75	0.077900805
250	0xbd135fab	-0.035979908
251	0xbe298dbd	-0.16557975
252	0x3d6d478f	0.05792957
253	0xbe1fd208	-0.15607464
254	0xbdebc376	-0.115118906
255	0xbe24dd57	-0.1610006

tae_encoder.lstm_1.weight_hh_l0 f4 [200, 50]
0	0xbd5bdbee	-0.05367654
1	0xbdfa7d34	-0.12230912
2	0x3e36a13e	0.17834947
3	0x3e0b424d	0.1359951
4	0xbd0ab485	-0.033863563
5	0x3ccc6836	0.024952035
6	0xbcc119de	-0.023571905
7	0xbe0636da	-0.13106862
8	0x3d449c97	0.0480009
9	0xbda22b71	-0.07918442
10	0x3e29a040	0.16565037
11	0xbd491c2d	-0.049099136
12	0x3cfab0c0	0.03060186
13	0xbc9b1d1e	-0.018934783
14	0xbb577c96	-0.0032880655
15	0x3e32c637	0.17458425
16	0x3d4170d6	0.04722675
17	0x3dd9cb82	0.10634519
18	0xbb7b55ef	-0.003835078
19	0x3dc1cfa4	0.094634324
20	0x3cd77692	0.026301656
21	0xbe2e160b	-0.17000596
22	0xbccf2cf3	-0.025289988
23	0xbbe18ad1	-0.0068830033
24	0xbe1b76d4	-0.15182048
25	0x3e1cba02	0.15305331
26	0xbda36f41	-0.079802044
27	0x3d986ac9	0.07442243
28	0x3e0df98c	0.13864726
29	0x3d2d784f	0.042351063
30	0xbdb4f2ef	-0.088353984
31	0xbd9b57b5	-0.07585088
32	0x3ddd2bfd	0.10799406
33	0x3e1057f1	0.14096047
34	0xbc2a052e	-0.0103772115
35	0xbdd193d4	-0.10233274
36	0xbdb2fa95	-0.08739201
37	0xbd972132	-0.073793784
38	0x3dd790af	0.10525643
39	0xba0b6ce0	-0.0005318653
40	0x3c93c101	0.018036367
41	0x3ca0334f	0.019555716
42	0xbe07e6f3	-0.13271694
43	0x3e4cfa33	0.20017318
44	0x3e179a2c	0.14804906
45	0x3ba559da	0.0050461115
46	0x3dd598e7	0.104295544
47	0xbb8dfd46	-0.004333171
48	0x3dc5ec98	0.09664267
49	0xbd8e0e59	-0.0693633
50	0xbdcee9c7	-0.10103183
51	0x3d85b517	0.06528681
52	0xbcad84a4	-0.021181412
53	0xbdd6c974	-0.10487643
54	0xbc0d569a	-0.008626604
55	0x3e44a0bb	0.19201939
56	0x3d05c806	0.03266146
57	0xb9e10dea	-0.0004292571
58	0x3e25de46	0.16198072
59	0x3d42238c	0.04739718
60	0xbde69143	-0.11258175
61	0xbdc606b2	-0.09669246
62	0xbdc761d7	-0.09735458
63	0xbe3adbd6	-0.18247923
64	0x3d4b6229	0.04965416
65	0x3c986b54	0.018605866
66	0x3d92fdf6	0.071773455
67	0xbd48cf67	-0.04902592
68	0xbd535f78	-0.051604718
69	0xbda8ed91	-0.08248437
70	0xbcbbb7db	-0.022914818
71	0x3db22ba8	0.08699733
72	0x3d583d6f	0.052792963
73	0xbd2054c9	-0.039143357
74	0xbce54cde	-0.027990755
75	0x3df4dbc6	0.11955981
76	0xbd013c16	-0.031551443
77	0x3d49a625	0.049230713
78	0xbd67c207	-0.056581523
79	0x3d7160d3	0.05893023
80	0xbdfa1599	-0.12211151
81	0x3d917222	0.07101847
82	0xbae43dec	-0.0017413474
83	0xbe13c610	-0.14431024
84	0xbc868223	-0.016419476
85	0x3b1e08e5	0.0024114188
86	0xbd44b645	-0.04802539
87	0x3db3f4dd	0.08786938
88	0x3cc1d87b	0.023662796
89	0xbd2394b7	-0.039936747
90	0x3d8a268b	0.06745633
91	0x3d8a6a3a	0.06758542
92	0xbe385cef	-0.18004201
93	0xbd900be6	-0.070335194
94	0x3d3ae226	0.04562583
95	0x3db9eabf	0.090779774
96	0x3da0fadb	0.07860347
97	0x3db2cef2	0.08730878
98	0xbe12c01b	-0.14331095
99	0x3cdab81d	0.02669912
100	0x3dae5404	0.085121185
101	0x3d44e36f	0.04806846
102	0xbb728090	-0.0037002899
103	0x3dae6b54	0.08516565
104	0x3dc833b3	0.09775486
105	0x3e044728	0.12917769
106	0xbd679bac	-0.056544945
107	0x3d04d7e5	0.032432456
108	0xbca655bd	-0.020304555
109	0x3db51083	0.0884104
110	0xbd3b7412	-0.04576499
111	0x3c7e54b0	0.015523121
112	0xbe11b5e4	-0.14229542
113	0xbdbc479b	-0.09193345
114	0xbcf1fd1c	-0.029539637
115	0x3d2fbc2a	0.042904057
116	0xbdb373e0	-0.08762336
117	0x3db6c3ce	0.089240655
118	0xbb97b0ea	-0.004629244
119	0x3c264999	0.010149383
120	0x3e3b228f	0.18274902
121	0x3d308d2f	0.043103393
122	0xbd3de901	-0.046364788
123	0xbd9f9067	-0.077912144
124	0x3d808c40	0.062767506
125	0xbb051721	-0.0020307975
126	0x3de8d755	0.11369196
127	0x3a614f1a	0.0008594856
128	0x3e0f4c94	0.13994056
129	0xbd92d03d	-0.071686246
130	0xbd27df9f	-0.040984746
131	0x3c125ef7	0.008933774
132	0x3d8aabc1	0.06771041
133	0x3b77ebc9	0.0037829748
134	0x3b76e155	0.003767093
135	0xbe5e27ef	-0.21694921
136	0x3c5d21ef	0.01349686
137	0x3ddd77ba	0.10813852
138	0x3d515581	0.051106934
139	0xbd8861c8	-0.06659275
140	0x3dd497bd	0.10380504
141	0x3ca14a90	0.019688874
142	0xbd3732f4	-0.044726327
143	0xbe33c7e1	-0.17556717
144	0xbc9f3b43	-0.019437438
145	0x3e2150cc	0.15753478
146	0x3e24f401	0.16108705
147	0x3e26ad7a	0.16277114
148	0x3e03f6f1	0.1288717
149	0xbe53e793	-0.20693807
150	0x3cb132d9	0.021630691
151	0xbda9660d	-0.08271418
152	0x3dbc26d4	0.091870934
153	0xbdd18192	-0.10229792
154	0xbc49ed38	-0.012324624
155	0x3cf32149	0.029678958
156	0xbcf4275d	-0.029803926
157	0x3dc2c5cc	0.09510383
158	0xbcecc8cd	-0.028904343
159	0xbc30fba3	-0.010802182
160	0x3e050e3d	0.12993713
161	0x3e028732	0.12746885
162	0x3c76ea78	0.01507055
163	0xbbed6598	-0.007244777
164	0xbd43d418	-0.04780969
165	0xbac0f7e2	-0.0014722312
166	0xbd1e6e53	-0.038679432
167	0xbd0cdd7d	-0.034390915
168	0xbe0578c5	-0.13034351
169	0xbe57ef39	-0.2108735
170	0x3e0d5c0f	0.13804649
171	0xbe0c3758	-0.13692987
172	0xbd8feaa0	-0.07027173
173	0x3bbfe0eb	0.0058556697
174	0x3c224bde	0.009905783
175	0x3d8850de	0.06656049
176	0x3e2ea00c	0.1705324
177	0xbde77f4e	-0.11303578
178	0x3e03ce9e	0.12871787
179	0x3d46f779	0.048575852
180	0xbdd5c5c6	-0.10438113
181	0x3e1d667a	0.15371123
182	0xbadb8f85	-0.0016751146
183	0xbd8e4b66	-0.06947975
184	0xbd9fdf83	-0.07806303
185	0xbd849451	-0.064736016
186	0x3d5f077c	0.054450497
187	0x3df3db50	0.11907065
188	0x3e10f2cb	0.14155118
189	0x3dc197c4	0.09452775
190	0x3dac294e	0.08406316
191	0x3dc1d28c	0.09463987
192	0xbd80ddf3	-0.062923335
193	0xbd9b86aa	-0.075940445
194	0xbdbf9bfb	-0.09355923
195	0x3e146a27	0.14493619
196	0x3d980256	0.074223205
197	0xbdbdcce5	-0.09267596
198	0xbe2a4610	-0.16628289
199	0x3cb45507	0.0220132
200	0xbcd418c9	-0.025890725
201	0x3ddb82da	0.10718317
202	0x3c83f862	0.01610965
203	0x3d6dd42e	0.05806368
204	0x3e1b2622	0.15151265
205	0xbd693b2c	-0.056941196
206	0xbda0c080	-0.078492165
207	0xbb090b23	-0.002091118
208	0x3d9554db	0.072915755
209	0x3e50292c	0.20328206
210	0x3c5263dd	0.012841192
211	0x3d92c82f	0.07167088
212	0xbd8fc86f	-0.070206515
213	0xbd2e24fb	-0.042515736
214	0xbde542a7	-0.111943536
215	0x3c681eee	0.01416753
216	0xbe0ca54f	-0.13734935
217	0x3ccdc4d5	0.02511827
218	0xbe38d918	-0.18051565
219	0xbdcb2287	-0.09918695
220	0x3dc989be	0.09840725
221	0xbda16230	-0.07880056
222	0xbdaddb61	-0.08489109
223	0x3e0509c6	0.1299201
224	0xbe586c25	-0.21135004
225	0xbde0811e	-0.10962127
226	0x3e1fe597	0.15614925
227	0x3c60d1f0	0.013721928
228	0xbcb03e61	-0.02151412
229	0x3df95e43	0.12176182
230	0x3db22088	0.08697611
231	0x3daae062	0.08343579
232	0x3d9b4ad9	0.075826354
233	0xbdeb951e	-0.11503051
234	0xbdf8b4af	-0.12143838
235	0xbde9de4d	-0.11419354
236	0xbd2d6394	-0.042331293
237	0xbdec5064	-0.11538771
238	0x3dfb6c37	0.122765
239	0xbe1ca118	-0.15295827
240	0xbdb10b47	-0.08644729
241	0xbcf7cdbc	-0.030249469
242	0xbdeadba8	-0.11467677
243	0xbe1d9f9a	-0.15392914
244	0x3a61f0e4	0.00086189643
245	0xbd90a296	-0.07062261
246	0x3de7e12d	0.11322246
247	0xbca1d953	-0.019756949
248	0xbd5492bc	-0.05189775
249	0xbdab314c	-0.08359012
250	0x3e3f2989	0.18668188
251	0x3d8fc9b3	0.07020893
252	0x3bed1709	0.007235412
253	0xbd110ced	-0.035412718
254	0xbe10c3f3	-0.14137249
255	0xbe2b44ff	-0.16725539

tae_encoder.lstm_1.bias_ih_l0 f4 [200]
0	0x3d3a4062	0.045471556
1	0xbdbea8fb	-0.09309574
2	0x3e25e633	0.16201095
3	0xbd921846	-0.07133536
4	0xbda25008	-0.07925421
5	0xbdf17780	-0.11790371
6	0xbddfe629	-0.109325714
7	0x3db0a154	0.08624521
8	0xbdb5ba63	-0.08873441
9	0x3e173168	0.1476494
10	0x3d3128bf	0.04325175
11	0xbd79f7da	-0.061027385
12	0xbdb020bb	-0.08599993
13	0x3d7592eb	0.059954565
14	0x3e3c2382	0.1837292
15	0xbdae57a1	-0.08512808
16	0xbcc222a2	-0.023698155
17	0x3b4ab90e	0.0030933055
18	0xbe16bbb5	-0.14720042
19	0x3cc0d8f5	0.023540953
20	0x3d960a19	0.07326145
21	0xbd2d61a4	-0.042329445
22	0x3dc80982	0.097674385
23	0x3d8e5f1a	0.06951733
24	0xbcdcd4ac	-0.026956879
25	0xbd91ad36	-0.071131155
26	0xbd3c4ab5	-0.045969684
27	0xbda1c308	-0.078985274
28	0x3e2f9288	0.17145741
29	0xbb381014	-0.0028085755
30	0x3d78bff3	0.060729932
31	0x3d5f3078	0.054489583
32	0xbd90d5f2	-0.07072057
33	0xbbd9bdf5	-0.006644959
34	0xbc6fe7af	-0.01464264
35	0xbc866b96	-0.016408723
36	0x3df27020	0.118377924
37	0x3d538594	0.051641062
38	0xbd92e1fb	-0.071720086
39	0xbd527445	-0.051380415
40	0x3df543ca	0.1197582
41	0x3c9baace	0.019002344
42	0x3cbc76d2	0.023005877
43	0xbe468246	-0.19385633
44	0x3e350972	0.17679384
45	0xbde0aaff	-0.10970115
46	0xbdd8482b	-0.1056064
47	0x3da293be	0.07938336
48	0x3cdd937f	0.02704787
49	0x3dbb63c7	0.091498904
50	0x3d2bf16f	0.041978296
51	0xbd197151	-0.037461583
52	0x3d9fcb58	0.078024566
53	0xbe0ee160	-0.13953161
54	0xbcc4e01f	-0.02403265
55	0xbdfebba0	-0.124381304
56	0x3d5cc046	0.053894304
57	0x3da6a472	0.08136834
58	0x3de80de6	0.11330776
59	0x3daad679	0.08341689
60	0x3afb2ab2	0.0019162504
61	0xbe1ce49a	-0.1532158
62	0x3b602db7	0.0034206936
63	0xbdb0701a	-0.08615132
64	0xbe18ea2d	-0.14933081
65	0xb96fbcaa	-0.00022863099
66	0xbdd98fe4	-0.10623148
67	0xbdef5406	-0.11685948
68	0xbe5237a3	-0.20529036
69	0x3be89c51	0.0070987125
70	0x3db3283a	0.08747907
71	0x3d721f39	0.059111807
72	0x3dc7e562	0.09760548
73	0xbdbbb3da	-0.09165163
74	0x3d640156	0.055665337
75	0xbd28c36c	-0.041201994
76	0xbccca5da	-0.024981428
77	0xbe15515f	-0.14581822
78	0xbd0dd1b1	-0.034623805
79	0xbd3fc554	-0.046819046
80	0x3e31313e	0.1730394
81	0x3dba310e	0.09091388
82	0x3db33cd7	0.08751839
83	0x3e1f267e	0.15542027
84	0x3e1037bd	0.14083762
85	0xbd2dc329	-0.042422447
86	0x3e20ff8e	0.15722486
87	0xbdb792a6	-0.08963518
88	0x3d5e8af2	0.054331727
89	0xbdb2b9d2	-0.08726849
90	0x3dc0def9	0.09417529
91	0xbdf000df	-0.11718916
92	0xbbe4f191	-0.006986805
93	0xbe18801c	-0.1489262
94	0x3cf5c912	0.030003104
95	0xbd5f57c2	-0.05452705
96	0xbe124eb2	-0.14287832
97	0xbdde36e6	-0.10850315
98	0xbd39c61c	-0.045354947
99	0xbe0353be	-0.12824914
100	0x3d5c5197	0.053788748
101	0xbc6db5c0	-0.014508665
102	0x3e24a308	0.16077816
103	0x3e1822be	0.14857003
104	0x3e16e66b	0.14736335
105	0x3cf13562	0.0294444
106	0xbdd583f0	-0.10425556
107	0xbe021f50	-0.12707257
108	0x3d9def6e	0.07711683
109	0xbe22cdff	-0.15898894
110	0xbd715f90	-0.058929026
111	0x3d5c1430	0.05373019
112	0x3d63dad7	0.055628624
113	0x3dfdc80e	0.12391673
114	0xbd5ffb04	-0.054682747
115	0x3d4a1a2d	0.04934137
116	0xbd066496	-0.03281077
117	0xb9140b50	-0.00014118594
118	0xbdd17aab	-0.10228475
119	0x3d71ff35	0.059081275
120	0xbd309cab	-0.04311816
121	0xbdbfd129	-0.09366066
122	0x3c5a271a	0.013314987
123	0x3d2f811f	0.04284775
124	0xbdecd918	-0.11564845
125	0xbd362d1f	-0.044476625
126	0x3d221969	0.039575014
127	0x3dcca5f8	0.099925935
128	0x3e1347b9	0.14382829
129	0xbdad8fd6	-0.084747
130	0xbe568c13	-0.20951872
131	0xbbe9a96d	-0.007130793
132	0xbe360805	-0.17776497
133	0x3bc1f978	0.0059196316
134	0x3e1f7177	0.15570627
135	0x3db5c6e2	0.088758245
136	0xbda6b1b6	-0.081393644
137	0x3df87a91	0.12132753
138	0xbdbb3cc7	-0.09142452
139	0xbc9a3a40	-0.018826604
140	0xbce64c90	-0.02811268
141	0x3ceed549	0.029154437
142	0x3e21f30e	0.15815374
143	0xbd28c020	-0.04119885
144	0x3ddb6458	0.107124984
145	0x3d73f1f0	0.0595569
146	0x3c9ba0c5	0.01899756
147	0x3de2e1fe	0.11078261
148	0x3cf1b750	0.029506356
149	0x3d88839a	0.06665726
150	0x3d9afae0	0.07567382
151	0xbd8ebf81	-0.0697012
152	0x3dc76203	0.09735491
153	0x3dc59742	0.09647991
154	0xbde6c80c	-0.11268625
155	0x3caa2ff2	0.020774815
156	0x3d1ff406	0.03905108
157	0x3d2ee57e	0.04269933
158	0x3d6f617c	0.058442578
159	0xbd38b67d	-0.04509591
160	0xbe0d71be	-0.1381292
161	0x3e007e88	0.12548268
162	0xbe00b49d	-0.12568898
163	0x3c170a7c	0.009218808
164	0x3e3af5f3	0.18257885
165	0xbc49c616	-0.012315294
166	0xbde4a6fd	-0.11164663
167	0xbe22c850	-0.15896726
168	0xbe21cbb1	-0.15800358
169	0xbd2cb803	-0.042167675
170	0xbba89d92	-0.005145737
171	0xbe2c7924	-0.16843086
172	0xbdcd980a	-0.10038765
173	0x3dd92ac6	0.106038615
174	0xbdc43e6b	-0.09582218
175	0xbd995b98	-0.07488173
176	0xbd75ea31	-0.060037795
177	0xbe48ad33	-0.1959732
178	0xbda8059b	-0.08204194
179	0xbbeda4d0	-0.007252313
180	0xbb790e8e	-0.003800306
181	0x3e2f5a82	0.1712437
182	0xbddc89b3	-0.107684515
183	0x3dbb299e	0.09138797
184	0xbc99de11	-0.018782647
185	0x3d1e940c	0.038715407
186	0x3e2441cd	0.16040726
187	0x3d0e734b	0.03477792
188	0xbdb8b527	-0.09018927
189	0x3e0dfce3	0.13866
190	0x3d9edbe4	0.077567846
191	0xbe574499	-0.21022262
192	0x3e559a32	0.20859602
193	0xbc1b3dce	-0.009475185
194	0x3dc0346d	0.093849994
195	0x3ced83f5	0.028993586
196	0xbe07a5bb	-0.13246815
197	0xbdc1b329	-0.09458
198	0x3ca72d5e	0.020407375
199	0x3d842675	0.064526476

tae_encoder.lstm_1.bias_hh_l0 f4 [200]
0	0xbd28dbec	-0.04122536
1	0x3e22a632	0.15883711
2	0x3e12acdd	0.14323755
3	0xbdc8c3fd	-0.09803007
4	0x3c1db8c5	0.009626572
5	0xbc9320b3	-0.017959928
6	0xbe032dd1	-0.12810446
7	0x3e19f06f	0.15033124
8	0x3cd42261	0.0258953
9	0x3bcacd6c	0.006189039
10	0xbd9cda95	-0.07658879
11	0xbd4753e7	-0.048664
12	0x3bb26dca	0.005445217
13	0x3dfa859f	0.122325175
14	0xbb54c209	-0.0032464287
15	0x3d50491e	0.05085098
16	0xbd95ea47	-0.073200755
17	0xbe02eb93	-0.12785177
18	0xbca348bf	-0.019932149
19	0xbdbd4b64	-0.09242895
20	0xbe26d7c8	-0.16293252
21	0xbe0145aa	-0.12624231
22	0x3b8dc0aa	0.004325946
23	0xbd3df9ed	-0.046380926
24	0xbd31f98b	-0.043450873
25	0xbdc1a7f2	-0.09455861
26	0xbe146d95	-0.14494927
27	0x3d06c2d2	0.03290064
28	0xba982219	-0.0011606842
29	0xbdcf5c26	-0.10124998
30	0x3d344308	0.04400924
31	0x3d379524	0.044819966
32	0xbbd7b80d	-0.00658322
33	0xbc800203	-0.01562596
34	0xbcc88cae	-0.024481144
35	0x3df80644	0.1211057
36	0xbcb05568	-0.0215251
37	0xbd93e965	-0.07222251
38	0xbd44c591	-0.048039977
39	0x3e114069	0.14184727
40	0x3dd80cae	0.105492935
41	0xbd42c01c	-0.04754649
42	0x3e44eddf	0.19231366
43	0xbe5a5853	-0.21322756
44	0x3d5b49f1	0.053537313
45	0x3cfeefe2	0.031120244
46	0xbe3e5852	-0.18588379
47	0xbe0ebdc4	-0.13939577
48	0x3d4c27c9	0.04984263
49	0x3a7de03a	0.00096845964
50	0xbd5fffd0	-0.05468732
51	0x3deaf2e3	0.11472108
52	0xbc0c1c4d	-0.008551669
53	0x3da1ba25	0.078968324
54	0x3e29eb12	0.16593578
55	0xbda15e43	-0.07879307
56	0xbe12f100	-0.14349747
57	0xbcb86686	-0.022509824
58	0x3d2fed97	0.042951193
59	0x3e3d2ffe	0.18475339
60	0x3d88f8eb	0.06688102
61	0xbce129a9	-0.027485685
62	0xbe1d2a83	-0.15348248
63	0xbd7f6c15	-0.062358934
64	0xbe0351c7	-0.12824164
65	0x3d439ba4	0.047755852
66	0xbde10bc1	-0.1098857
67	0x3ca419f3	0.020031905
68	0xbd639748	-0.055564195
69	0x3d82664f	0.0636717
70	0xbe23d164	-0.15997845
71	0xbd0f6e7b	-0.03501747
72	0xbe21a2f4	-0.15784818
73	0xbde27fa1	-0.110594995
74	0x3e376760	0.17910528
75	0x3d93f7d8	0.07225007
76	0xbdf5b303	-0.119970344
77	0xbd270b28	-0.040782124
78	0x3d090113	0.03344829
79	0x3ca2b8a0	0.019863427
80	0x3e47a5fd	0.19496913
81	0xbd03864a	-0.03211049
82	0xbdf7c5cf	-0.12098276
83	0x3ab21d9b	0.0013589145
84	0x3dfe1631	0.124065764
85	0xbe385e55	-0.18004735
86	0xbc950fd5	-0.018196026
87	0x3dcc39d2	0.09971966
88	0xbe174741	-0.14773275
89	0xbd9d66e2	-0.07685639
90	0x3dab9852	0.08378662
91	0x3c944c13	0.018102681
92	0x3c204091	0.009781019
93	0xbe5104f2	-0.20412043
94	0x3d9f4a07	0.077777915
95	0xbe3dc1bd	-0.18530937
96	0x3db3a6f3	0.087720774
97	0x3b64710a	0.0034857416
98	0xbda94c22	-0.08266474
99	0xbe120a0d	-0.14261647
100	0x3d12ac30	0.035808742
101	0xbe372a31	-0.17887188
102	0xbcb06bc1	-0.021535756
103	0x3e24d0b1	0.16095234
104	0xbb9d2e56	-0.0047967834
105	0x3d2b9bf2	0.041896768
106	0xbda2a5b4	-0.079417616
107	0xbd954ab1	-0.07289637
108	0x3d0238c0	0.031792402
109	0x3d6da486	0.05801823
110	0x3db3a163	0.087710164
111	0xbc84c738	-0.016208276
112	0x3d79e8b2	0.06101293
113	0x3d70a345	0.058749456
114	0x3db469b4	0.08809224
115	0xbdb1a1f1	-0.08673466
116	0x3c5d641c	0.0135126375
117	0x3de34b3f	0.110983364
118	0x3c9eed6b	0.01940032
119	0x3e1ca335	0.15296634
120	0xbd9b6a95	-0.07588688
121	0x3e2dec1e	0.16984603
122	0xbd10bc24	-0.035335675
123	0x3c244864	0.010027025
124	0x3d214755	0.03937467
125	0x3ce980d6	0.028503817
126	0x3d4fd584	0.050740734
127	0x3cd5f452	0.026117478
128	0x3d704961	0.05866373
129	0x3d90fc29	0.07079346
130	0xbe50a5a8	-0.20375693
131	0x3d2b53be	0.04182791
132	0xbded9593	-0.11600795
133	0x3e3600a9	0.1777369
134	0x3e558c75	0.20854361
135	0xbd6bb78e	-0.0575481
136	0xbe2f92de	-0.17145869
137	0xbbf2e821	-0.007412926
138	0xbd901062	-0.07034375
139	0xbe16f02d	-0.14740057
140	0x3ddd5592	0.10807337
141	0x3da81cad	0.082085945
142	0x3dc467e9	0.09590132
143	0xbc0fe16c	-0.008781772
144	0x3e3e062f	0.18557046
145	0x3d4ac46d	0.049503732
146	0x3c0e53f3	0.008687007
147	0x3cdae4fb	0.026720515
148	0xbd797185	-0.060899276
149	0xbd310150	-0.043214142
150	0xbce830f5	-0.028343657
151	0x3de45cd1	0.11150516
152	0x3dccc363	0.099982046
153	0x3b836af5	0.004010553
154	0x3c20fa86	0.009825354
155	0xbd25e148	-0.040498048
156	0x3c8c78d9	0.017147468
157	0x3e30a3b1	0.17249943
158	0xbe24e1ed	-0.16101809
159	0xbb820ed2	-0.003969052
160	0x3cb3d854	0.02195374
161	0xbe03c37e	-0.12867543
162	0x3df9d092	0.12197985
163	0x3e27b15e	0.16376254
164	0x3e0f89af	0.14017366
165	0xbd1fc8fa	-0.039010026
166	0x3d4584f5	0.0482225
167	0x3dbca1a0	0.09210515
168	0xbe3e2d2b	-0.18571918
169	0xbe0784cb	-0.1323425
170	0xbdae087b	-0.08497711
171	0x3d35e1ba	0.044404723
172	0x3d99f7d5	0.07517973
173	0x3daf3cd6	0.085565254
174	0x3dfcd8fd	0.12346075
175	0xbc05e84e	-0.008173062
176	0xbe612a9a	-0.21988907
177	0xbc30d1f3	-0.010792243
178	0x3dfa40b7	0.122193746
179	0xbe16b156	-0.14716086
180	0x3de8f5ce	0.113750085
181	0x3d85447b	0.06507202
182	0x3d47407f	0.048645493
183	0xbdca448a	-0.09876354
184	0x3dc2d867	0.09513932
185	0x3e3de5df	0.1854472
186	0x3df34d82	0.11880018
187	0xbd8fb1d0	-0.07016337
188	0xb9b37645	-0.00034229658
189	0xbd927712	-0.07151617
190	0xbd8937f3	-0.067001246
191	0xbe33b4ea	-0.17549482
192	0x3e72a0ac	0.23694104
193	0x3d692475	0.056919534
194	0x3e2b6670	0.16738296
195	0x3bbe74aa	0.0058122473
196	0xbd8f3124	-0.06991795
197	0x3d988fc4	0.07449296
198	0x3aa03be1	0.0012224877
199	0xbe067855	-0.1313184

tae_encoder.lstm_1.weight_ih_l0_reverse f4 [200, 50]
0	0xbccd5a2e	-0.025067415
1	0x3d41702f	0.047226127
2	0x3c7c4ef2	0.015399681
3	0x3d397865	0.045280833
4	0xbdcc60e4	-0.09979418
5	0xbe0fc0a1	-0.14038326
6	0x3d84921f	0.06473183
7	0x3c38f9b0	0.011289999
8	0x3ceb320a	0.028710384
9	0xbdd46dcd	-0.10372505
10	0x3e0751cf	0.13214801
11	0x3dc3bb17	0.09557169
12	0x3de4c3cc	0.11170158
13	0xbe0c058d	-0.13673992
14	0x3c954b10	0.01822427
15	0x3d42d296	0.04756411
16	0xbc6eef07	-0.014583356
17	0xbd93cb1d	-0.07216475
18	0xbdc95f40	-0.098326206
19	0x3d7a91f1	0.061174337
20	0x3df44d89	0.11928851
21	0x3da29ace	0.07939683
22	0xbd2140eb	-0.03936855
23	0x3ddc74eb	0.10764488
24	0xbe16bbd2	-0.14720085
25	0xbdeb7a7a	-0.1149797
26	0x3d7eca09	0.062204394
27	0x3d9c0183	0.07617476
28	0xbc32f767	-0.010923243
29	0x3b64aae9	0.003489191
30	0x3cbf7ecc	0.023375891
31	0xbd765b8f	-0.06014591
32	0xbd6f4fe6	-0.058425806
33	0x3dc34ef8	0.095365465
34	0xbddba067	-0.10723954
35	0xbc17e466	-0.009270763
36	0x3d1a20ed	0.037629057
37	0xbdf14f5d	-0.117827155
38	0xbdadb66a	-0.08482058
39	0xbdde02df	-0.10840391
40	0xbe0dfe09	-0.13866438
41	0x3db3297e	0.087481484
42	0x3da9fc06	0.08300023
43	0xbd4489a6	-0.047982834
44	0xbd7bb36d	-0.06145041
45	0xbdedf02b	-0.11618074
46	0xbe08aa12	-0.13346127
47	0x3b18739a	0.0023262263
48	0xbd399180	-0.045304775
49	0xbcfc2aa7	-0.030782057
50	0xbdfa4b69	-0.122214146
51	0xbcbff0d4	-0.023430265
52	0xbe254532	-0.16139677
53	0x3c97b2f9	0.018517958
54	0xbe286f3e	-0.16448686
55	0xbe2905cc	-0.16506118
56	0xbe3f8ea9	-0.18706764
57	0xbe47f98b	-0.19528787
58	0xbdc3a1d1	-0.095523484
59	0xbdcb199a	-0.099169925
60	0x3cbc18c8	0.022961035
61	0xbc4a3f22	-0.012344154
62	0x3d235564	0.039876357
63	0xbda844d7	-0.08216255
64	0x3d79b830	0.06096667
65	0x3c7e3648	0.015515871
66	0xbdee5605	-0.11637501
67	0xbe2b923a	-0.16755
68	0xbd715197	-0.0589157
69	0xbda5305c	-0.080658644
70	0xbdf5c986	-0.12001328
71	0xbc69f8ad	-0.01428048
72	0xbe1b33c5	-0.15156467
73	0xbd8c9148	-0.06863648
74	0xbe379de9	-0.17931332
75	0x3d799b3d	0.060939062
76	0xbe1daa27	-0.15396939
77	0x3a7f2298	0.0009732633
78	0xb99ff71f	-0.00030510963
79	0xbdc9def0	-0.09856975
80	0xbda9615f	-0.08270525
81	0x3c7c3e82	0.015395762
82	0xbe37e52e	-0.17958519
83	0xbdbefdd5	-0.09325758
84	0x3d89f0ce	0.06735383
85	0xbd0ce8c0	-0.034401655
86	0xbe43cdab	-0.19121425
87	0xbdb6e589	-0.08930499
88	0x3c65b816	0.01402094
89	0xbd73a9b7	-0.059488025
90	0x3ccb5984	0.024822958
91	0xbd8dee68	-0.06930238
92	0x3d89ad70	0.06722534
93	0x3bcc71ee	0.0062391674
94	0xbdb2c6e1	-0.087293394
95	0xbddada8e	-0.10686217
96	0xbc871275	-0.016488293
97	0xbe4e9dd1	-0.2017739
98	0x3d097430	0.03355807
99	0x3d59ecaf	0.053204235
100	0xbd7683b6	-0.060184203
101	0x3d7f0867	0.062263872
102	0xbd8fff00	-0.07031059
103	0x3d448867	0.047981646
104	0x3d09c9f7	0.033639874
105	0xbe2722ef	-0.1632192
106	0xbdbe76b1	-0.09299982
107	0x3d2d9bab	0.042384785
108	0xbd0b2d72	-0.033978887
109	0x3da857e9	0.082198925
110	0x3e042803	0.12905888
111	0xbd3026d1	-0.04300577
112	0x3c9c2e3c	0.019065015
113	0xbd01b274	-0.031664327
114	0xbdf12360	-0.11774325
115	0xbdef02b0	-0.116704345
116	0x3da1eadc	0.07906124
117	0xbdc807f9	-0.09767146
118	0x3dae9b0e	0.08525668
119	0x3d9b1453	0.07572236
120	0xbddf6edc	-0.109098166
121	0xb948b0e8	-0.00019139389
122	0x3dda64ec	0.106637806
123	0x3d77187e	0.060326092
124	0x3d38eba5	0.045146603
125	0xbd603635	-0.054739196
126	0x3cb75287	0.02237822
127	0xbdd17b66	-0.102286145
128	0xbdde1d9f	-0.108454935
129	0xba306d3a	-0.0006730143
130	0x3d82151b	0.06351682
131	0xbc2031ee	-0.009777529
132	0xbd1804b4	-0.03711386
133	0xbd2c4ef3	-0.04206748
134	0x3d36191e	0.044457547
135	0x3d4c4e95	0.04987963
136	0x3d19bf35	0.037535865
137	0xbe03f9f6	-0.12888321
138	0xbe1f25e1	-0.15541793
139	0xbcc1f10f	-0.023674516
140	0xbdf4fc39	-0.1196217
141	0xbc8ac0bc	-0.016937606
142	0x3d08a6c3	0.03336216
143	0xbd8ca495	-0.06867329
144	0x3cae284a	0.021259446
145	0xbd899971	-0.0671872
146	0x3d9277fb	0.07151791
147	0x3c901096	0.017586034
148	0x3dcb20c1	0.09918357
149	0x3e112ede	0.14178035
150	0x3d6fddaa	0.058561005
151	0xbcac2b56	-0.021016758
152	0x3e437bcd	0.19090195
153	0xbca8ec6a	-0.020620544
154	0xbd07b66e	-0.033132963
155	0xbc008097	-0.007843158
156	0xbe31f42e	-0.17378303
157	0x3da80260	0.08203578
158	0x3de1075f	0.10987734
159	0x3e2dca24	0.16971642
160	0x3d6ff465	0.058582682
161	0x3e542005	0.2071534
162	0xbddb907a	-0.10720916
163	0xbd0ae905	-0.03391363
164	0x3cdb00e1	0.026733818
165	0xbdd24423	-0.10266902
166	0x3be6cf82	0.00704378
167	0x3d9c0ecd	0.076200105
168	0x3c518ff6	0.012790671
169	0x3e027a7b	0.12742035
170	0x3d2db424	0.042408124
171	0xbd5764b2	-0.052586265
172	0xbd90cee5	-0.07070712
173	0x3d87a27a	0.06622787
174	0x3d2634cd	0.0405777
175	0xbd063ea3	-0.03277458
176	0x3d8e9e98	0.06963843
177	0xbdd7f7ec	-0.10545334
178	0x3de8ed39	0.11373372
179	0x3db0b259	0.08627767
180	0xbe3081d0	-0.1723702
181	0x3e4d5822	0.20053151
182	0x3e30bc23	0.17259268
183	0x3dcebf2f	0.10095059
184	0xbd00eb96	-0.031474672
185	0xbe0317d5	-0.1280206
186	0xbab0357e	-0.0013443676
187	0x3d1fa19d	0.038972486
188	0x3ce0de42	0.02744973
189	0xbd97c007	-0.07409673
190	0x3d8d3c67	0.068962865
191	0x3e010b54	0.12601978
192	0x3dda1fc3	0.10650589
193	0x3db07be3	0.086173795
194	0x3d68fc91	0.05688149
195	0xba9a8e9e	-0.0011791771
196	0x3e134b7f	0.14384268
197	0x3e2ef75a	0.17086545
198	0x3dd5f49d	0.10447047
199	0xbdbcbfd6	-0.09216277
200	0xbce6f550	-0.028193146
201	0xbd0e05cd	-0.0346735
202	0x3d861f3f	0.065489285
203	0x3cc90922	0.024540488
204	0xbe50ae70	-0.20379043
205	0xbde5f027	-0.11227446
206	0x3c815086	0.015785467
207	0x3d45cd05	0.048291225
208	0xbd551508	-0.05202201
209	0x3d8149d9	0.063129134
210	0x3d8d857a	0.06910224
211	0x3b967aea	0.004592289
212	0x3da306d7	0.07960289
213	0x3d9434ab	0.07236608
214	0xbe2c6811	-0.16836573
215	0xbe252865	-0.1612869
216	0xbdc24d46	-0.09487395
217	0xbe14ed7d	-0.1454372
218	0xbd6bb5f4	-0.05754657
219	0x3ca7c088	0.020477548
220	0xbd8c92a1	-0.06863905
221	0xbde22f5e	-0.11044191
222	0xbd5e9200	-0.054338455
223	0x3d3adad1	0.045618836
224	0xbdee91cf	-0.116489045
225	0x3d12ca78	0.03583762
226	0xbdb912b3	-0.0903677
227	0xbe0497e0	-0.1294856
228	0x3d6032bc	0.054735884
229	0xbdbde1a5	-0.09271554
230	0x3ced8e15	0.028998414
231	0x3e17edf2	0.14836863
232	0xbc9ea6bb	-0.019366613
233	0xbd6081d8	-0.05481133
234	0xbbdfda78	-0.0068314634
235	0x3d4f6763	0.050635707
236	0x3ccfc7e0	0.025363863
237	0xbd8e570f	-0.06950199
238	0x3b0395f1	0.0020078386
239	0x3bb42474	0.0054975096
240	0x3d06f067	0.03294411
241	0xbdc291a7	-0.09500437
242	0xbd42375c	-0.047416076
243	0xbd4248d2	-0.047432728
244	0x3e0c7473	0.13716297
245	0x3e020d00	0.12700272
246	0xbd5e502f	-0.054275688
247	0x3d378200	0.044801712
248	0x3dc1ed78	0.09469122
249	0xbe42bbda	-0.19016972
250	0x3c15432a	0.009110251
251	0xbdc6d830	-0.09709203
252	0xbe64152a	-0.22273698
253	0x3d0c3f56	0.03424009
254	0xbcf5d28e	-0.030007627
255	0x3d23634b	0.039889615

tae_encoder.lstm_1.weight_hh_l0_reverse f4 [200, 50]
0	0xbdd96f6f	-0.106169574
1	0xbd37a0b6	-0.044831
2	0x3d5faa0e	0.054605536
3	0x3db50d88	0.088404715
4	0xbc5e2eed	-0.013560993
5	0xbd8b3fe9	-0.06799299
6	0x3cca4c3f	0.02469456
7	0xbe39d5ac	-0.18147916
8	0x3cfd2261	0.030900182
9	0xbdc52355	-0.0962588
10	0x3d842306	0.06451993
11	0x3bb02990	0.0053760484
12	0x3dcaf8e6	0.09910755
13	0xbde2b5c1	-0.11069823
14	0x3e323675	0.17403586
15	0xbd95c2a6	-0.07312517
16	0x3d82f300	0.06394005
17	0xbd0bebf4	-0.03416057
18	0x3d61ace1	0.05509651
19	0x3d788711	0.060675684
20	0xbd9e1850	-0.07719481
21	0xbd87f96e	-0.06639372
22	0x3e319211	0.17340876
23	0x3dd59255	0.10428301
24	0xbc89d3ea	-0.016824681
25	0x3e2ee3aa	0.17079034
26	0x3d88ff43	0.06689312
27	0x3c2a806f	0.0104065975
28	0x3dbbe31c	0.09174177
29	0xbd74f5ce	-0.05980473
30	0xbcdd0e14	-0.026984252
31	0x3e30d37e	0.17268178
32	0xbddbc8b6	-0.10731642
33	0xbceba3fe	-0.028764721
34	0x3e2a7820	0.16647387
35	0xbd9ca0b3	-0.076478384
36	0xbe1711b6	-0.1475285
37	0xbc3eb62d	-0.011640114
38	0x3d839a61	0.0642593
39	0xbda1df0a	-0.079038695
40	0xbcb9a3a7	-0.022661043
41	0xbcb85ff9	-0.0225067
42	0x3d8ee68b	0.06977566
43	0x3e0b83f6	0.13624558
44	0x3c2a6cad	0.010401887
45	0x3d423c3c	0.047420725
46	0xbe08242f	-0.13295053
47	0xbdd32034	-0.10308877
48	0xbd870f28	-0.06594688
49	0xbc985612	-0.018595729
50	0xbc3839e6	-0.011244273
51	0xbcd4413e	-0.025910016
52	0xbdd6980e	-0.10478221
53	0xbe0e93b5	-0.13923533
54	0xbdc65cb3	-0.0968565
55	0x3d511c9d	0.05105268
56	0x3e0220b2	0.12707785
57	0x3d85bb96	0.0652992
58	0xbe1d45cc	-0.15358657
59	0xbcb45284	-0.022012003
60	0x3db10318	0.08643168
61	0x3e4297ac	0.1900317
62	0x3e39b433	0.18135147
63	0xbd4a30d0	-0.049362957
64	0xbd60530e	-0.054766707
65	0xbd989349	-0.074499674
66	0xbdeeae6c	-0.11654362
67	0x3d4cbed5	0.04998668
68	0x3c9d98fc	0.019237988
69	0xbdf31250	-0.11868727
70	0xbdef1a5b	-0.11674949
71	0x3e1352d8	0.14387071
72	0x3ceb2e32	0.028708551
73	0x3ce393ee	0.0277805
74	0xbc51d7ca	-0.012807796
75	0xbe153b37	-0.1457337
76	0x3e2fa227	0.171517
77	0x3d27ea02	0.04099465
78	0xbd52b61f	-0.051443215
79	0xbe23f31d	-0.16010709
80	0x3e10e0e6	0.14148292
81	0xbd2bda7e	-0.041956417
82	0x3e128596	0.14308771
83	0xbd15d7fb	-0.03658293
84	0xbd08909f	-0.033341046
85	0x3da88cad	0.08229957
86	0x3d61d65e	0.055136077
87	0x3e384ead	0.17998762
88	0x3dee86cd	0.11646805
89	0x3e0b8c09	0.13627638
90	0x3df7b0c6	0.12094264
91	0xbd861e8b	-0.06548794
92	0x3cc1b01d	0.023643548
93	0xbe1f6621	-0.15566303
94	0x3dc43556	0.095804855
95	0xbe19b669	-0.1501099
96	0x3bc62808	0.0060472526
97	0xbd44e651	-0.04807121
98	0x3d66a066	0.05630531
99	0xb9856aa1	-0.00025447182
100	0xbcf0d04a	-0.029396195
101	0x3d0e65e7	0.03476515
102	0x3da7b245	0.08188299
103	0xbdf27a21	-0.118397005
104	0x3ab3f34a	0.0013729122
105	0xbde9c3db	-0.114143096
106	0x3db276bd	0.08714054
107	0x3e4f1706	0.20223626
108	0x3e35bc10	0.17747521
109	0x3dd40a08	0.10353476
110	0x3dea6135	0.11444322
111	0x3e75eacd	0.2401535
112	0xbdd157e6	-0.102218434
113	0xbce33c45	-0.0277387
114	0x3bd7029f	0.0065615918
115	0x3c42239d	0.011849311
116	0x3db0ef38	0.08639377
117	0x3d71e107	0.059052493
118	0x3d5492da	0.05189786
119	0x3d4e503d	0.05036949
120	0xbe2e1bc6	-0.17002782
121	0x3e051524	0.12996346
122	0xbc224b17	-0.009905598
123	0xbde1c4d8	-0.11023873
124	0x3dc33c50	0.09532988
125	0xbd7ace15	-0.06123169
126	0x3e1f8ea7	0.15581761
127	0x3df3fbc5	0.119132556
128	0x3d434a1c	0.047678098
129	0x3d8e4b61	0.06947971
130	0x3d9e3a0c	0.07725915
131	0x3e0d79ae	0.13815948
132	0x3e1a12c2	0.15046218
133	0xbe4a4eb8	-0.19756591
134	0xbd2ef2f8	-0.04271218
135	0xbda27094	-0.07931629
136	0x3e564543	0.20924859
137	0x3e3bcc39	0.18339624
138	0xbd97eb1a	-0.07417889
139	0xbd30b4d4	-0.0431412
140	0x3e33ecc9	0.17570795
141	0xbdd8e1b0	-0.105899215
142	0xbcbf6213	-0.023362195
143	0xbdf224b1	-0.118234046
144	0xbcea9a6e	-0.028638091
145	0x3deb08fc	0.11476323
146	0xbcf28348	-0.029603615
147	0x3c92bad6	0.017911356
148	0x3c971ff6	0.018447857
149	0x3e0aea0c	0.13565844
150	0xbde603a3	-0.112311624
151	0x3e2cd867	0.16879426
152	0xbabf9ace	-0.0014618279
153	0x3e24b74c	0.16085547
154	0x3e0281ff	0.12744902
155	0x3e00b11b	0.1256756
156	0xbe1d8b89	-0.1538526
157	0xbe061906	-0.13095483
158	0xbd8d457a	-0.06898017
159	0x3e063521	0.13106205
160	0x3d88fab9	0.066884466
161	0xbe23df20	-0.16003084
162	0xbdd6f6d4	-0.104962975
163	0x3e09fd23	0.1347547
164	0xbde532be	-0.11191319
165	0xbd16713d	-0.036729086
166	0xbc050512	-0.008118885
167	0x3ce6df29	0.028182583
168	0xbdc39ef7	-0.095518045
169	0xbdbecdff	-0.093166344
170	0x3e1e9448	0.15486252
171	0xbe4d52ad	-0.2005107
172	0xbd871426	-0.0659564
173	0xbe5b8cbc	-0.21440405
174	0x3e1a9dff	0.15099333
175	0xbd8a5bc7	-0.067557864
176	0x3b5bb1ad	0.003352265
177	0xbe20f7d7	-0.15719543
178	0x3e7092e5	0.23493536
179	0x3e240f4c	0.1602146
180	0xbd72a1b0	-0.05923623
181	0x3dd9261f	0.10602974
182	0xbd93c98f	-0.072161786
183	0x3c7daf76	0.015483728
184	0xbb630a3e	-0.0034643556
185	0xbe287e31	-0.16454388
186	0xbdec60b7	-0.115418844
187	0xbe393d8b	-0.18089883
188	0xbe466850	-0.1937573
189	0xbcd4ecb3	-0.025991773
190	0xbe0acc79	-0.13554563
191	0x3e27e4d9	0.16395892
192	0x3ba52272	0.0050395066
193	0x3db91e5a	0.09038992
194	0xbd0f5274	-0.034990743
195	0x3d400652	0.046881028
196	0x3e3f7cd0	0.18699956
197	0x3e1c8dd7	0.15288483
198	0xbdb3b041	-0.08773852
199	0xbdb8d091	-0.09024156
200	0x3e30bfc6	0.17260656
201	0x3db3544a	0.08756311
202	0xbdef027e	-0.11670397
203	0xbd05855d	-0.03259789
204	0xbe38a036	-0.18029866
205	0x3d952817	0.07283037
206	0x3cf46e08	0.029837623
207	0x3e00503a	0.12530604
208	0xbca85b58	-0.020551369
209	0x3d24fd53	0.04028065
210	0xbdcaf804	-0.099105865
211	0xbd7e4bd4	-0.062084034
212	0xbddb68ef	-0.10713374
213	0xbddd7799	-0.10813827
214	0xbe0820af	-0.13293718
215	0xbd4b7e8d	-0.049681235
216	0xbdb4b332	-0.08823241
217	0xbddcd6ad	-0.10783134
218	0xbcba96ee	-0.022777047
219	0xbd44ec13	-0.0480767
220	0x3e0675cc	0.13130873
221	0xbdaf6f28	-0.08566123
222	0x3ddcfbbd	0.10790203
223	0x3d93b6ae	0.07212578
224	0x3b923fbe	0.004463165
225	0xbd8e2f3b	-0.06942602
226	0xbd9b5199	-0.07583923
227	0x3d91efdf	0.0712583
228	0x3dbdca7a	0.09267135
229	0x3ce6ffe7	0.028198196
230	0xbbd6cdaa	-0.006555279
231	0xbda54942	-0.080706134
232	0xbc377909	-0.011198291
233	0x3d701ac4	0.058619276
234	0xbd8edc75	-0.069756426
235	0xbb46c803	-0.0030331619
236	0xbddad471	-0.10685051
237	0xbc6485bb	-0.013947899
238	0x3c5484cc	0.012971114
239	0xbd4e41f5	-0.05035587
240	0x3cb1efc6	0.021720778
241	0x3d94a42f	0.07257878
242	0x3d5e2b65	0.054240603
243	0xbe08d155	-0.13361104
244	0x3d9b609f	0.075867884
245	0xbcd1b0b8	-0.025596961
246	0x3df05720	0.11735368
247	0x3e32fd33	0.174794
248	0xbc841c4a	-0.01612677
249	0xbddf124c	-0.10892162
250	0x3e0823ba	0.13294879
251	0xbe3e7e19	-0.1860279
252	0x3e05696d	0.13028498
253	0xbdacc7aa	-0.084365204
254	0x3bd12004	0.0063819904
255	0xbce60534	-0.028078653
