models_weights/SonyAIBORobotSurface1/full_model_weigths.pth (torch, 178474 bytes, 21 tensors)

centroids f4 [2, 10]
0	0xbf3f1313	-0.7463848
1	0xbbb60cd5	-0.005555729
2	0xbe311687	-0.1729375
3	0xbf406534	-0.75154424
4	0xbf39cb6d	-0.7257603
5	0xbf3cd9da	-0.73769915
6	0xbef0cf6f	-0.4703326
7	0xbb172e47	-0.0023068355
8	0xbee59628	-0.44841123
9	0xbf0d69c5	-0.55239516
10	0xbf0455ae	-0.51693237
11	0xbcb8db6c	-0.022565566
12	0xbed33ec8	-0.41258836
13	0xbf408897	-0.7520842
14	0xbf2f9685	-0.6858905
15	0xbedd35fb	-0.43205246
16	0xbeff66f7	-0.49883243
17	0xbc06a289	-0.008217462
18	0xbefd611d	-0.49488154
19	0xbf2bc8d1	-0.67103297

tae.tae_encoder.conv_layer.0.weight f4 [50, 1, 10]
0	0x3e94412c	0.28955972
1	0xbe6d8caa	-0.2319819
2	0xbe24dad2	-0.16099098
3	0x3e8d5d38	0.27610183
4	0x3e4a9661	0.19783928
5	0x3e470964	0.19437176
6	0x3e3fcfe5	0.18731649
7	0xbe56363b	-0.20919125
8	0x3df96ec4	0.1217933
9	0x3e6646d2	0.22487953
10	0xbe4cdf33	-0.20007019
11	0xbdd2efa7	-0.10299616
12	0x3eb217ea	0.3478387
13	0xbe11f3f6	-0.1425322
14	0xbdaa34af	-0.0831083
15	0xba6e2860	-0.0009084996
16	0xbdfe5e7a	-0.12420364
17	0x3dde7672	0.108624354
18	0xbda690b3	-0.08133068
19	0x3db8e103	0.090272926
20	0x3c1459d4	0.00905462
21	0xbe089a58	-0.13340127
22	0xbcc5e9c0	-0.024159312
23	0x3e683b4f	0.22678874
24	0x3e1b0582	0.1513882
25	0xbdac7142	-0.0842004
26	0x3d99602b	0.07489046
27	0x3e348c4e	0.17631647
28	0xbe0e140a	-0.13874832
29	0x3cf6d656	0.0301315
30	0xbe9cd856	-0.306338
31	0x3e14cd1a	0.14531365
32	0xbe98c071	-0.2983432
33	0xbe14df57	-0.14538322
34	0xbe446b7f	-0.19181632
35	0xbe7d86ef	-0.24758504
36	0xbe2675f7	-0.16255938
37	0xbea2e4ab	-0.31815085
38	0xbe8ea1f4	-0.27857935
39	0x3d90c230	0.07068288
40	0xbe46e959	-0.19424953
41	0xbe8318e1	-0.2560492
42	0xbca260ab	-0.019821486
43	0xbe0e98da	-0.13925496
44	0xbebad5b4	-0.36491168
45	0xbe60606a	-0.21911779
46	0x3d4befe0	0.04978931
47	0x3d386605	0.04501917
48	0x3d89c874	0.067276865
49	0xbbac3fe9	-0.005256642
50	0x3d77cc16	0.060497366
51	0xbe8f93ec	-0.28042543
52	0xbe0840f3	-0.13306026
53	0x3e95a595	0.29227892
54	0xbc585b62	-0.013205381
55	0x3e1b6816	0.15176424
56	0x3e554036	0.20825276
57	0x3d2b1848	0.041771203
58	0x3e59fd27	0.21287976
59	0x3e5bd52f	0.21468042
60	0xbe88ebb1	-0.26742318
61	0xbe41f6f4	-0.18941861
62	0xbdeec4d2	-0.11658634
63	0xbdc02502	-0.09382059
64	0xbe319e98	-0.17345655
65	0xbe0979f7	-0.13425432
66	0xbe1aa2af	-0.15101121
67	0xbe47b0cb	-0.19501035
68	0xbe8f1d1c	-0.27951896
69	0xbdb78fe9	-0.089629956
70	0x3d8fb8da	0.070176795
71	0xbdb0b27b	-0.086277924
72	0x3e0f765c	0.14009994
73	0x3e266acb	0.16251676
74	0x3e8547da	0.2603138
75	0x3e851bb0	0.25997686
76	0x3e6905fe	0.22756192
77	0x3e2a2879	0.16617002
78	0xbe0e7717	-0.13912617
79	0x3e5a937b	0.21345322
80	0xbe3438ec	-0.17599839
81	0x3e837b9d	0.25680247
82	0x3e915553	0.2838541
83	0xbe53eb65	-0.20695265
84	0xbe7dcd7e	-0.2478542
85	0xbe2c25d4	-0.16811305
86	0xbbed264a	-0.0072372304
87	0xbe508b38	-0.20365608
88	0x3e48206c	0.19543618
89	0xbeb28f2a	-0.3487485
90	0x3e6aae1e	0.22917983
91	0xbe608995	-0.21927483
92	0x3e9c42a0	0.3051958
93	0x3d789893	0.06069238
94	0x3e9e8106	0.30957812
95	0x3de12625	0.109936036
96	0x3d117b1f	0.035517808
97	0x3ddad3d9	0.10684938
98	0x3e9d4d71	0.30723146
99	0xbd8e4c91	-0.06948198
100	0xbe8d395a	-0.27582818
101	0x3dfad9c9	0.122485705
102	0xbec383ec	-0.38186586
103	0x3e066704	0.13125235
104	0xbe0e875c	-0.13918823
105	0xbd49a77a	-0.049231984
106	0xbe8371d1	-0.25672773
107	0xbe90b94d	-0.28266373
108	0x3e7f81cc	0.24951857
109	0xbea15f79	-0.31518152
110	0x3e06a59c	0.13149112
111	0xbc88cff0	-0.016700715
112	0x3dbd13c7	0.09232288
113	0xbcf2540d	-0.029581094
114	0x3e07b302	0.1325188
115	0xbea2a743	-0.31768236
116	0x3d04a556	0.03238424
117	0x3e3c9fc5	0.18420322
118	0xbea1701c	-0.31530845
119	0x3dbd3411	0.092384465
120	0x3dfe9792	0.124312535
121	0x3e7006fd	0.23440166
122	0xbe90a909	-0.28253964
123	0xbe6af2ca	-0.22944179
124	0xbdc559ca	-0.096362665
125	0x3e34cd75	0.176565
126	0xbd6ee2f0	-0.058321893
127	0xbe7cea0a	-0.24698654
128	0xbd618179	-0.055055115
129	0xbe24d801	-0.16098024
130	0xbb8e6019	-0.004344952
131	0x3d33f2f9	0.04393289
132	0xbe8355f6	-0.2565152
133	0x3e910abf	0.2832851
134	0xbe1d7883	-0.15378003
135	0x3bdd428d	0.0067523182
136	0xbd8a7edc	-0.06762478
137	0xbde9cd71	-0.11416138
138	0xbe201f24	-0.15636879
139	0x3d549614	0.05190094
140	0x3e536051	0.2064221
141	0x3e6b597b	0.22983353
142	0xbe02d4b8	-0.12776458
143	0xbe76ee1d	-0.2411427
144	0x3d91b307	0.07114225
145	0xbd9085f6	-0.07056801
146	0xbd2c5ef1	-0.04208273
147	0xbe0c27ac	-0.13687009
148	0x3b24195a	0.0025039525
149	0xbb18e851	-0.002333183
150	0x3ddb8b7f	0.10719966
151	0xbbc48bfd	-0.005998133
152	0xbe45002c	-0.19238347
153	0x3d1c1490	0.038105547
154	0xbd83f771	-0.0644368
155	0x3a89b020	0.001050476
156	0x3dcb2ba5	0.09920434
157	0xbe0f0980	-0.13968468
158	0xbdeb537c	-0.11490533
159	0x3e4ed8ef	0.20199941
160	0xbe73d69b	-0.23812334
161	0x3d84545a	0.06461401
162	0xbe311d19	-0.17296256
163	0x3e77adf5	0.24187453
164	0xbdb68e38	-0.08913845
165	0xbd9b439a	-0.07581253
166	0xbe066538	-0.1312455
167	0xbdc8c349	-0.09802873
168	0xbe63a195	-0.22229607
169	0x3d29918a	0.041398562
170	0xbd0c1be1	-0.034206275
171	0x3e62752b	0.22115009
172	0xbe9be190	-0.30445528
173	0xbd1ee64b	-0.038793843
174	0x3e20bd8e	0.1569731
175	0xbd0ac7cf	-0.03388196
176	0xbe7f1f91	-0.24914385
177	0xbdedbe19	-0.11608524
178	0x3b74f9a9	0.0037380254
179	0x3d737a89	0.05944303
180	0xbbb4e10d	-0.005519992
181	0x3ced3b7e	0.028959032
182	0xbb485c36	-0.003057254
183	0x3e733af8	0.23752964
184	0x3e7c3455	0.24629338
185	0xbd2069bd	-0.03916334
186	0x3ea2120f	0.31654403
187	0x3d822eba	0.06356569
188	0x3e82d8d1	0.25556043
189	0xbdb958a4	-0.0905011
190	0x3ea6b092	0.32556587
191	0xbe81bb3d	-0.25338164
192	0x3ddf51ff	0.109043114
193	0x3e845ba4	0.25851166
194	0x3e0fe465	0.1405197
195	0xbe0ccc36	-0.13749775
196	0x3e71a67d	0.23598666
197	0x3e096c2b	0.13420169
198	0x3e5461a3	0.2074037
199	0xbd183cf9	-0.037167523
200	0xbdf97b50	-0.12181723
201	0x3eacdf2f	0.33764026
202	0xbdb493b3	-0.08817234
203	0x3e055a3a	0.130227
204	0xbe809ce9	-0.25119713
205	0x3d4a584e	0.04940062
206	0xbdfd15eb	-0.12357696
207	0x3e3cea46	0.18448743
208	0x3d196610	0.03745085
209	0xbe454757	-0.19265495
210	0xbe5b7c40	-0.21434116
211	0xbe89b94d	-0.26899186
212	0x3d68b857	0.056816425
213	0xbe4a2baa	-0.19743219
214	0x3df440f3	0.119264506
215	0xbea559d4	-0.32295096
216	0xbe54f030	-0.2079475
217	0xbe41b90c	-0.18918246
218	0x3c83b86c	0.01607915
219	0xbe4710c5	-0.19439991
220	0xbcb48413	-0.022035634
221	0xbddfc45f	-0.10926127
222	0xbe12d3c9	-0.14338602
223	0xbd045773	-0.03230996
224	0x3d0c465b	0.034246784
225	0xbe89eb6d	-0.26937428
226	0xbe3f794c	-0.18698615
227	0xbe86e088	-0.2634318
228	0x3dfe3b65	0.12413672
229	0x3d819967	0.06328087
230	0xbd1aec07	-0.03782275
231	0xbe35a8fd	-0.17740245
232	0x3e2763bb	0.16346638
233	0xbde71c8e	-0.11284743
234	0x3c9e1efa	0.01930188
235	0xbe7c02fc	-0.24610513
236	0x3d884f0b	0.06655701
237	0xbe33120e	-0.17487356
238	0xbdcf0a7b	-0.10109421
239	0x3ccdfd6a	0.025145251
240	0x3e75b01c	0.23992962
241	0xbdc1da9e	-0.09465526
242	0x3dddecef	0.10836207
243	0xbe062c19	-0.1310276
244	0x3dac8303	0.08423426
245	0xbc4add40	-0.012381852
246	0x3c264611	0.010148541
247	0x3e050e22	0.12993672
248	0xbe2cdb2e	-0.16880485
249	0x3e5e3eb7	0.21703611
250	0x3d3f4f94	0.04670675
251	0xbe01d88e	-0.12680265
252	0x3e50e18d	0.20398541
253	0xbe5e4afc	-0.21708292
254	0x3e8b2e96	0.2718398
255	0xbe6ee8c3	-0.23330979

tae.tae_encoder.conv_layer.0.bias f4 [50]
0	0xbd877aba	-0.06615205
1	0xbe9c00ca	-0.30469352
2	0xbd06486f	-0.03278392
3	0xbdc87d75	-0.09789554
4	0x3d985f65	0.0744007
5	0x3e885fd4	0.2663561
6	0x3e7de2c4	0.24793535
7	0x3e1c7eaf	0.15282701
8	0x3c9ab104	0.018883236
9	0xbe8fe2e5	-0.28102794
10	0xbe99432a	-0.29934055
11	0xbe6b6840	-0.22988987
12	0xbdb0ed6b	-0.08639034
13	0xbdc301c1	-0.09521819
14	0x3cb1b36d	0.021692002
15	0xbc407127	-0.011745728
16	0xbc22b8b6	-0.009931734
17	0xbe8c316e	-0.27381462
18	0x3df9d465	0.12198714
19	0x3b7cdf81	0.0038585367
20	0xbe655708	-0.22396481
21	0x3ce25d79	0.027632462
22	0xbdd7fe6c	-0.10546574
23	0xbca51cd4	-0.020155348
24	0xbea3c093	-0.3198286
25	0xbec9a488	-0.3938334
26	0xbe9c6013	-0.3054205
27	0xbe80715a	-0.2508648
28	0x3e93369b	0.28752598
29	0x3e02116c	0.12701958
30	0xbe9a6616	-0.3015601
31	0xbdfca660	-0.12336421
32	0x3e8687ca	0.26275474
33	0xbec280aa	-0.37988788
34	0xbe879805	-0.2648317
35	0xbe6f33cc	-0.23359603
36	0xbdd5b3a5	-0.10434655
37	0x3b5355c3	0.0032247163
38	0xbea2fc90	-0.31833315
39	0x3d2f1c92	0.042751856
40	0x3dfdc3df	0.12390875
41	0x3e399655	0.18123753
42	0x3d39cf10	0.045363486
43	0xbe1bdb48	-0.15220368
44	0xbe3be382	-0.18348506
45	0xbe38ba7b	-0.18039887
46	0x3dc54bce	0.09633599
47	0xbdb5c067	-0.088745885
48	0x3e606d9a	0.2191681
49	0xbe863bbc	-0.2621745

tae.tae_encoder.lstm_1.weight_ih_l0 f4 [200, 50]
0	0xbbdbefc4	-0.006711932
1	0xbc1b594d	-0.00948174
2	0xbd41310c	-0.047165915
3	0x3d58614d	0.05282717
4	0x3d46f8f3	0.04857726
5	0xbd63b104	-0.055588737
6	0xbcaa636c	-0.020799361
7	0xbd179253	-0.03700478
8	0x3d8779c5	0.066150226
9	0x3d0ec573	0.03485627
10	0x3ded9d1f	0.11602234
11	0xbdd8764e	-0.1056944
12	0x3d67dfd8	0.05660996
13	0xbdb8fd65	-0.09032706
14	0xbb023565	-0.0019868251
15	0xbd5f8e34	-0.054578975
16	0xbd29543f	-0.04134011
17	0x3c9be47b	0.019029846
18	0x3df3be37	0.11901515
19	0xbc0c5a13	-0.008566397
20	0xbd77c8f3	-0.060494374
21	0x3d03cef6	0.032179795
22	0x3d987009	0.07443244
23	0x39446e8c	0.00018733199
24	0x3d9a375d	0.07530091
25	0xbca40c01	-0.020025255
26	0xbddb3374	-0.10703173
27	0xbe10eacb	-0.14152066
28	0xbda77ac6	-0.08177714
29	0x3d80982f	0.06279027
30	0x3df89f35	0.12139741
31	0xbdb738ee	-0.08946405
32	0xbde67095	-0.11251942
33	0x3d239c84	0.039944187
34	0x3c4b1bf0	0.012396798
35	0xbd661377	-0.056170907
36	0xbd1d95b5	-0.03847285
37	0xbe096589	-0.13417639
38	0x3df302ff	0.11865806
39	0x3ce7281e	0.028217372
40	0xbd51ba06	-0.051202796
41	0x3d6529dd	0.055948127
42	0xbd947d05	-0.07250408
43	0x3d80b1f7	0.06283944
44	0x3db73578	0.08945745
45	0xbdbb137b	-0.09134575
46	0x3ae10130	0.0017166492
47	0x3da8231a	0.0820982
48	0xba43fee1	-0.00074766396
49	0xbdcd9c56	-0.10039584
50	0xbd4f9c4f	-0.050686177
51	0x3d8697b7	0.06571906
52	0xbe1e2858	-0.15445077
53	0xbc9c95aa	-0.019114334
54	0xbcbee6c5	-0.023303399
55	0xbdb624fd	-0.08893774
56	0x3e05397e	0.13010213
57	0x3cf725f1	0.030169459
58	0x3c759b0a	0.0149905775
59	0xbd730134	-0.05932732
60	0xbcb1dc94	-0.021711625
61	0xbc801c9f	-0.015638648
62	0x3df1432d	0.11780391
63	0xbdbff783	-0.09373381
64	0xbde0a1bc	-0.109683484
65	0xbd9e46aa	-0.07728322
66	0xbae5b01d	-0.0017523799
67	0x3d8f7d40	0.070063114
68	0x3d8a143c	0.06742141
69	0xbc7e75c9	-0.015531012
70	0x3deb73fd	0.114967324
71	0x3d0c020a	0.034181632
72	0x3ce3c241	0.027802588
73	0x3da80333	0.08203735
74	0xbd578c03	-0.05262376
75	0x3d75af69	0.059981737
76	0x3e1224ad	0.14271803
77	0xbb485045	-0.0030565422
78	0x3cacdb57	0.021100683
79	0x3c9e6b61	0.019338312
80	0x3c2231ee	0.0098995995
81	0x3dd80750	0.1054827
82	0x3c7d65fd	0.01546621
83	0xbd947f23	-0.07250812
84	0xbd895d0e	-0.06707202
85	0x3d01c955	0.031686146
86	0xbcff5f11	-0.03117326
87	0x3e1cf2bf	0.15326975
88	0x3d59c767	0.05316868
89	0xbd279e93	-0.040922713
90	0x3d3805a3	0.04492725
91	0x3dbef45c	0.093239516
92	0xbd4b42a7	-0.04962411
93	0xbd042afc	-0.032267556
94	0x3d065638	0.03279707
95	0x3d67e72e	0.056616955
96	0x3b5abfd2	0.0033378494
97	0x3dcf4a39	0.10121579
98	0xbd9e4d0b	-0.077295385
99	0x3e0f202b	0.13977115
100	0x3e4bc6a8	0.199
101	0xbccd090d	-0.02502873
102	0x3d77773d	0.06041645
103	0x3d54ac79	0.051922295
104	0xbcb97bc7	-0.02264203
105	0x3da5c04b	0.080933176
106	0x3df75956	0.12077586
107	0x3d7148e7	0.058907416
108	0xbd46a066	-0.04849281
109	0x3d888bbf	0.066672795
110	0x3dc642b1	0.09680689
111	0xbd38d89c	-0.04512845
112	0x3e1ebc7c	0.15501589
113	0x3c88abe4	0.016683526
114	0xbc86cf8a	-0.016456384
115	0x3d91007c	0.070801705
116	0x3c392de2	0.011302443
117	0x3dae7430	0.08518255
118	0x3d867c35	0.06566659
119	0x3d12b719	0.035819147
120	0x3e207639	0.15670098
121	0x3d41d56b	0.04732267
122	0x3c186ca5	0.009303247
123	0x3d8933a8	0.06699306
124	0xbd8e6bd3	-0.069541596
125	0x3e14e1f5	0.14539321
126	0xbac40c74	-0.0014957325
127	0x3df3b3d3	0.11899533
128	0xbc7763f5	-0.015099515
129	0x3e062673	0.13100605
130	0xbd0f1e9a	-0.034941293
131	0x3e10d37e	0.14143178
132	0x3e4fd36b	0.20295493
133	0x3dc40e83	0.095730804
134	0xbbcca8af	-0.0062456946
135	0xbdd44f2d	-0.10366664
136	0x3e03a171	0.12854554
137	0x3e305ff8	0.17224109
138	0x3d4634ef	0.048390325
139	0xbd914df2	-0.07094945
140	0xbd6a273c	-0.057166323
141	0x3e1b00d6	0.15137038
142	0x3e4feefa	0.20306006
143	0x3d99bb1d	0.07506392
144	0x3dbafd9d	0.09130404
145	0xbd0ab65f	-0.03386533
146	0x3c8806b4	0.016604759
147	0x3e048300	0.12940598
148	0x3da60439	0.08106274
149	0xbce6430c	-0.028108142
150	0xbdf72212	-0.12067045
151	0xbe3e2767	-0.18569718
152	0xbddd85f8	-0.10816568
153	0xbdbcba5e	-0.09215234
154	0xbe143ea3	-0.14477019
155	0xbdb23b00	-0.087026596
156	0xbe1c5c6e	-0.15269634
157	0xbbacb6bf	-0.0052708085
158	0xbc463b28	-0.012099065
159	0xbda7106c	-0.08157429
160	0xbd942a96	-0.07234685
161	0xbd25ec52	-0.040508576
162	0x3ccf222b	0.025284847
163	0xbcf29583	-0.029612308
164	0x3d29a626	0.041418217
165	0x3dd37b05	0.103261985
166	0xbe02c8b9	-0.12771882
167	0xbc4d491c	-0.012529638
168	0x3db3a31e	0.087713465
169	0x3dc38afe	0.09547995
170	0xbcefcb8c	-0.029271863
171	0xbe361e98	-0.17785108
172	0xbe3775c7	-0.17916022
173	0x3d8fb8fa	0.07017703
174	0x3de3d19f	0.111239664
175	0x3dbb3ce0	0.0914247
176	0xbc6e678a	-0.014551053
177	0x3d6c3bf6	0.05767437
178	0xb9b6ff8d	-0.00034904145
179	0x3db44156	0.08801524
180	0x3cad3533	0.021143531
181	0x3c7c3653	0.015393811
182	0x3db0c472	0.08631219
183	0xbdbef128	-0.09323341
184	0x3c951802	0.018199924
185	0xbe1e09e1	-0.15433456
186	0xbd8b0aa3	-0.06789138
187	0x3c834720	0.016025126
188	0x3cdbabd6	0.026815336
189	0x3d94aa71	0.072590716
190	0xbc58f902	-0.013242962
191	0xbc3115c8	-0.010808416
192	0xbd2d9822	-0.042381413
193	0x3d59509a	0.053055383
194	0xbd86a03c	-0.06573531
195	0xbc87a6a0	-0.016558945
196	0xbd970409	-0.073738165
197	0x3cedb0a4	0.029014893
198	0xbca63811	-0.020290406
199	0x3d846471	0.0646447
200	0x3cceffd5	0.025268475
201	0xbdeb2d62	-0.114832655
202	0xbcd9d3c6	-0.02659024
203	0xbdfc438c	-0.12317571
204	0x3e09ea78	0.13468349
205	0xbc5a1b69	-0.013312199
206	0x3b875ae3	0.0041307076
207	0xbdbc8662	-0.09205319
208	0x3bc9caf6	0.006158228
209	0x3dc33b58	0.09532803
210	0xbe0f62aa	-0.14002481
211	0x3c690fad	0.014224929
212	0xbe128d86	-0.143118
213	0x3db55056	0.088532135
214	0x3cb627b3	0.022235727
215	0x3c838183	0.016052967
216	0x3cbd9337	0.023141487
217	0xbd4d2869	-0.050087366
218	0xbdf596e4	-0.11991671
219	0xbdd88cdb	-0.10573741
220	0xbe0211be	-0.1270208
221	0x3db95082	0.09048559
222	0x3dd14658	0.10218495
223	0x3d29c6d1	0.04144937
224	0xbce66435	-0.028123954
225	0xbe2077a2	-0.15670636
226	0xbdda4028	-0.10656768
227	0x3d65a610	0.056066573
228	0xbd847233	-0.06467094
229	0xbdceba1a	-0.1009409
230	0xbc9b9c52	-0.018995438
231	0xbc83fdb9	-0.016112195
232	0x3d134b0a	0.035960235
233	0xbd94bd4f	-0.0726267
234	0x3dbba0a3	0.091614984
235	0x3d399c1f	0.045314904
236	0xbe0605c4	-0.13088137
237	0xbc0d7ed6	-0.008636197
238	0x3e180e70	0.14849257
239	0xbe132e6b	-0.14373176
240	0xbca99770	-0.020702094
241	0x3d9343f5	0.07190696
242	0xbde28a82	-0.110615745
243	0x3c8d82f7	0.017274363
244	0xbd9f519a	-0.07779236
245	0xbc661c91	-0.014044897
246	0x3d1d62bf	0.03842425
247	0xbe1117d9	-0.14169253
248	0xbdb8aa8a	-0.09016903
249	0x3d9f8794	0.07789531
250	0xbd1355b5	-0.03597041
251	0xbe298e1b	-0.16558115
252	0x3d6d4c09	0.05793384
253	0xbe1fd460	-0.15608358
254	0xbdebc3e4	-0.115119725
255	0xbe24da36	-0.16098866

tae.tae_encoder.lstm_1.weight_hh_l0 f4 [200, 50]
0	0xbd5bc5fe	-0.053655617
1	0xbdfa7220	-0.12228799
2	0x3e3695a1	0.17830516
3	0x3e0b3f73	0.13598423
4	0xbd0ac666	-0.033880614
5	0x3ccc694e	0.024952557
6	0xbcc0e4cd	-0.0235466
7	0xbe06293e	-0.1310167
8	0x3d449f38	0.048003405
9	0xbda20c10	-0.07912457
10	0x3e299d12	0.16563824
11	0xbd490c93	-0.049084257
12	0x3cfad5e0	0.030619562
13	0xbc9b2d61	-0.018942537
14	0xbb58b31c	-0.0033065742
15	0x3e32c665	0.17458494
16	0x3d416e5e	0.047224395
17	0x3dd9cb9e	0.1063454
18	0xbb7b605a	-0.003835699
19	0x3dc1cef7	0.094633035
20	0x3cd775f7	0.026301367
21	0xbe2e1677	-0.17000757
22	0xbccf2b8d	-0.025289321
23	0xbbe290b8	-0.0069142245
24	0xbe1b6820	-0.1517644
25	0x3e1cb976	0.15305123
26	0xbda36f0a	-0.079801634
27	0x3d986cd2	0.07442631
28	0x3e0df209	0.1386186
29	0x3d2d78a5	0.042351384
30	0xbdb4d9a8	-0.08830577
31	0xbd9b4d52	-0.07583107
32	0x3ddd2fd0	0.10800135
33	0x3e10530e	0.14094183
34	0xbc2ac759	-0.010423505
35	0xbdd1aa27	-0.10237532
36	0xbdb2e128	-0.087343514
37	0xbd9721bd	-0.07379482
38	0x3dd7915c	0.10525772
39	0xba05006d	-0.0005073611
40	0x3c9371ae	0.017998543
41	0x3ca0321f	0.01955515
42	0xbe07ef08	-0.13274777
43	0x3e4cf96b	0.2001702
44	0x3e178cd2	0.14799812
45	0x3ba55e0b	0.005046611
46	0x3dd59907	0.10429578
47	0xbb8dee6d	-0.004331401
48	0x3dc5e4a8	0.09662753
49	0xbd8e0e1f	-0.06936287
50	0xbdcee63c	-0.101025075
51	0x3d85b6a4	0.065289766
52	0xbcad97d5	-0.021190563
53	0xbdd6ca0e	-0.104877576
54	0xbc0d686a	-0.008630851
55	0x3e44a0ab	0.19201915
56	0x3d05cb03	0.03266431
57	0xb9dc72f3	-0.00042047314
58	0x3e25de35	0.16198047
59	0x3d4231ef	0.0474109
60	0xbde694a8	-0.11258823
61	0xbdc605dd	-0.09669087
62	0xbdc75fd1	-0.097350724
63	0xbe3add4b	-0.18248479
64	0x3d4b595d	0.04964577
65	0x3c986b58	0.018605873
66	0x3d92fce2	0.0717714
67	0xbd48cddb	-0.049024444
68	0xbd535f95	-0.051604826
69	0xbda8ed67	-0.08248406
70	0xbcbbb83f	-0.022915004
71	0x3db22ba6	0.086997315
72	0x3d583e43	0.052793752
73	0xbd205d04	-0.039151207
74	0xbce52d75	-0.027975777
75	0x3df4dc23	0.1195605
76	0xbd013c2d	-0.03155153
77	0x3d49aa4d	0.049234677
78	0xbd67c41a	-0.0565835
79	0x3d71610f	0.058930453
80	0xbdfa0f1f	-0.12209915
81	0x3d917647	0.07102638
82	0xbae412f9	-0.0017400674
83	0xbe13c677	-0.14431177
84	0xbc868fe4	-0.016426034
85	0x3b1d7204	0.0024024257
86	0xbd44ae0e	-0.048017554
87	0x3db3f4bc	0.08786914
88	0x3cc1d8c2	0.023662928
89	0xbd238e51	-0.039930645
90	0x3d8a20c6	0.06744532
91	0x3d8a6a57	0.06758564
92	0xbe385f4b	-0.18005101
93	0xbd900c04	-0.07033542
94	0x3d3ad4e4	0.045613185
95	0x3db9eab5	0.0907797
96	0x3da0faca	0.07860334
97	0x3db2cfea	0.08731063
98	0xbe12c16d	-0.14331599
99	0x3cdab8ee	0.02669951
100	0x3dae4d5d	0.085108496
101	0x3d44db21	0.04806054
102	0xbb71330a	-0.0036804103
103	0x3dae6d80	0.08516979
104	0x3dc8389b	0.09776422
105	0x3e044732	0.12917784
106	0xbd67a33c	-0.056552157
107	0x3d04c212	0.032411642
108	0xbca655ff	-0.020304678
109	0x3db501d9	0.08838243
110	0xbd3b68e7	-0.04575434
111	0x3c7e3e31	0.015517757
112	0xbe11b81e	-0.14230391
113	0xbdbc4290	-0.09192383
114	0xbcf1dcf8	-0.029524311
115	0x3d2fbbfa	0.042903878
116	0xbdb3720c	-0.08761987
117	0x3db6c2e8	0.08923894
118	0xbb97aeba	-0.0046289833
119	0x3c26495a	0.010149324
120	0x3e3b22a0	0.18274927
121	0x3d308d95	0.043103773
122	0xbd3dea4d	-0.046366025
123	0xbd9f879b	-0.077895366
124	0x3d807cd3	0.06273808
125	0xbb051cfa	-0.002031146
126	0x3de8d754	0.113691956
127	0x3a5fb517	0.00085337594
128	0x3e0f4e77	0.13994776
129	0xbd92d06b	-0.07168659
130	0xbd27fa21	-0.041010026
131	0x3c1220bc	0.008918937
132	0x3d8aaa10	0.06770718
133	0x3b785044	0.003788964
134	0x3b77fe94	0.003784095
135	0xbe5e22e8	-0.21693003
136	0x3c5cd274	0.01347791
137	0x3ddd7810	0.10813916
138	0x3d51550d	0.0511065
139	0xbd8868aa	-0.06660588
140	0x3dd4a332	0.103826895
141	0x3ca14a71	0.019688817
142	0xbd371f22	-0.044707425
143	0xbe33c7a6	-0.17556629
144	0xbc9f05ab	-0.019411882
145	0x3e2150cc	0.15753478
146	0x3e24f408	0.16108716
147	0x3e26aca8	0.162768
148	0x3e03f971	0.12888123
149	0xbe53e7b9	-0.20693864
150	0x3cb18d8e	0.021673944
151	0xbda95b19	-0.082693286
152	0x3dbc078b	0.09181126
153	0xbdd18592	-0.10230555
154	0xbc4a5438	-0.012349181
155	0x3cf31ea6	0.0296777
156	0xbcf3f143	-0.029778128
157	0x3dc2e36e	0.09516035
158	0xbceccacd	-0.028905297
159	0xbc2f7390	-0.010708705
160	0x3e05057f	0.12990378
161	0x3e028990	0.12747788
162	0x3c775e87	0.015098221
163	0xbbee49db	-0.007271988
164	0xbd43fd06	-0.047848724
165	0xbac0ebe0	-0.0014718734
166	0xbd1e7cec	-0.038693354
167	0xbd0cd55c	-0.034383163
168	0xbe0578f4	-0.13034421
169	0xbe57ef14	-0.21087295
170	0x3e0d5ba1	0.13804485
171	0xbe0c37b2	-0.13693121
172	0xbd8fe848	-0.07026726
173	0x3bbe5084	0.005807938
174	0x3c23c694	0.009996075
175	0x3d885226	0.066562936
176	0x3e2e9fff	0.17053221
177	0xbde77218	-0.113010585
178	0x3e03c869	0.12869419
179	0x3d46f84d	0.04857664
180	0xbdd59c15	-0.10430161
181	0x3e1d71a3	0.1537538
182	0xbada8253	-0.001667092
183	0xbd8e501b	-0.06948873
184	0xbd9ff845	-0.078110255
185	0xbd84b0a3	-0.06479003
186	0x3d5f3f57	0.054503765
187	0x3df3da5d	0.11906884
188	0x3e10f305	0.14155205
189	0x3dc1a97e	0.09456156
190	0x3dac0790	0.0839988
191	0x3dc1d2e1	0.0946405
192	0xbd80f672	-0.06297006
193	0xbd9b875e	-0.075941786
194	0xbdbfc43a	-0.09363599
195	0x3e146a18	0.14493597
196	0x3d980220	0.0742228
197	0xbdbdc7ab	-0.09266599
198	0xbe2a4bf8	-0.16630542
199	0x3cb459dd	0.022015506
200	0xbcd3dd4a	-0.025862355
201	0x3ddb93e3	0.107215665
202	0x3c8362be	0.016038295
203	0x3d6dcc5b	0.058056217
204	0x3e1b20e9	0.15149273
205	0xbd693b88	-0.05694154
206	0xbda0a3d4	-0.07843748
207	0xbb03d7cb	-0.0020117636
208	0x3d955584	0.072917014
209	0x3e5041c2	0.20337585
210	0x3c51ea87	0.012812263
211	0x3d92cdb4	0.07168141
212	0xbd8fb8a6	-0.07017641
213	0xbd2e1c43	-0.04250742
214	0xbde540ae	-0.11193977
215	0x3c681e85	0.014167433
216	0xbe0ca346	-0.13734159
217	0x3ccdca86	0.025120985
218	0xbe38d92b	-0.18051593
219	0xbdcb2231	-0.09918631
220	0x3dc98911	0.098405965
221	0xbda162fa	-0.078802064
222	0xbdadd93a	-0.08488698
223	0x3e04ff8d	0.1298811
224	0xbe5853f7	-0.2112578
225	0xbde080ce	-0.109620675
226	0x3e1fe594	0.15614921
227	0x3c60bf97	0.013717554
228	0xbcb0b4d1	-0.021570595
229	0x3df95e9e	0.1217625
230	0x3db245f6	0.0870475
231	0x3daae23a	0.083439305
232	0x3d9b4f95	0.075835384
233	0xbdeb9f08	-0.11504942
234	0xbdf8dd03	-0.1215153
235	0xbdea00f4	-0.11425963
236	0xbd2d0f53	-0.042250942
237	0xbdec51c1	-0.11539031
238	0x3dfb6c82	0.122765556
239	0xbe1c98f1	-0.15292718
240	0xbdb128bf	-0.0865035
241	0xbcf7ccb9	-0.030248987
242	0xbdeae57c	-0.11469552
243	0xbe1da001	-0.15393068
244	0x3a49e65b	0.0007701867
245	0xbd90a2a9	-0.07062275
246	0x3de7e0f4	0.11322203
247	0xbca1e521	-0.019762577
248	0xbd54a552	-0.051915474
249	0xbdab3177	-0.08359044
250	0x3e3f25fb	0.18666832
251	0x3d8fc3d8	0.07019776
252	0x3bedef5d	0.0072612003
253	0xbd11088b	-0.035408538
254	0xbe10c141	-0.1413622
255	0xbe2b44f9	-0.1672553

tae.tae_encoder.lstm_1.bias_ih_l0 f4 [200]
0	0x3d3a0980	0.045419216
1	0xbdbeab9b	-0.09310075
2	0x3e25eaec	0.16202897
3	0xbd9238d3	-0.071397446
4	0xbda27219	-0.07931919
5	0xbdf16cce	-0.11788331
6	0xbddfc849	-0.10926873
7	0x3db09f7f	0.086241715
8	0xbdb5ad23	-0.08870914
9	0x3e1731f5	0.14765151
10	0x3d317124	0.04332079
11	0xbd7a376c	-0.06108801
12	0xbdb0404a	-0.08606012
13	0x3d75a27d	0.059969414
14	0x3e3c24c6	0.18373403
15	0xbdae5940	-0.08513117
16	0xbcc21d78	-0.023695692
17	0x3b49dca1	0.003080167
18	0xbe16c06b	-0.14721839
19	0x3cc0cdce	0.023535635
20	0x3d960cba	0.07326646
21	0xbd2d5a67	-0.042322543
22	0x3dc80624	0.09766796
23	0x3d8e67c0	0.069533825
24	0xbcdcd3c0	-0.026956439
25	0xbd91b0c4	-0.071137935
26	0xbd3c420b	-0.04596142
27	0xbda1b7ac	-0.07896361
28	0x3e2f93c7	0.17146216
29	0xbb38ab2c	-0.0028178198
30	0x3d790627	0.060796883
31	0x3d5f4070	0.05450481
32	0xbd90d9d9	-0.07072801
33	0xbbdaff0b	-0.0066832355
34	0xbc6fcf85	-0.014636879
35	0xbc86ace3	-0.01643986
36	0x3df26a4e	0.11836682
37	0x3d5396b5	0.051657397
38	0xbd92dc44	-0.071709186
39	0xbd5298c6	-0.051415227
40	0x3df54135	0.11975328
41	0x3c9b9561	0.018992128
42	0x3cbc7f7a	0.023010004
43	0xbe467dce	-0.19383928
44	0x3e350977	0.17679392
45	0xbde0a8ad	-0.10969672
46	0xbdd8499c	-0.10560915
47	0x3da29a4c	0.07939586
48	0x3cddcaa1	0.02707416
49	0x3dbb70fa	0.09152408
50	0x3d2b7156	0.041856132
51	0xbd199084	-0.037491336
52	0x3d9ffc24	0.07811764
53	0xbe0ee886	-0.13955888
54	0xbcc5ae4e	-0.024130967
55	0xbdfeb9e2	-0.12437798
56	0x3d5d28a1	0.053993825
57	0x3da6a7ca	0.08137472
58	0x3de81059	0.11331243
59	0x3daadbf4	0.08342734
60	0x3b035813	0.002004151
61	0xbe1ce8c7	-0.15323173
62	0x3b5c7cfd	0.0033643835
63	0xbdb086b6	-0.08619444
64	0xbe18f2f0	-0.14936423
65	0xb96fd349	-0.00022871526
66	0xbdd990b4	-0.10623303
67	0xbdef5354	-0.116858155
68	0xbe523832	-0.2052925
69	0x3be899c7	0.00709841
70	0x3db32958	0.0874812
71	0x3d722006	0.05911257
72	0x3dc7df3f	0.09759378
73	0xbdbbbd22	-0.091669336
74	0x3d63fe7f	0.05566263
75	0xbd28c583	-0.041203987
76	0xbccca19c	-0.024979405
77	0xbe1551de	-0.14582011
78	0xbd0dce54	-0.034620598
79	0xbd3fc657	-0.04682001
80	0x3e3132cc	0.17304534
81	0x3db9fec4	0.09081796
82	0x3db33aa1	0.08751417
83	0x3e1f1a6a	0.1553742
84	0x3e103686	0.14083299
85	0xbd2de68b	-0.04245619
86	0x3e210013	0.15722685
87	0xbdb78d09	-0.08962447
88	0x3d5e8cdc	0.054333553
89	0xbdb2f870	-0.08738792
90	0x3dc0dea9	0.09417469
91	0xbdf00190	-0.11719048
92	0xbbe79bf1	-0.00706815
93	0xbe187fcb	-0.14892499
94	0x3cf5c184	0.029999502
95	0xbd5f5796	-0.054526888
96	0xbe124eb1	-0.14287831
97	0xbdde38b2	-0.108506575
98	0xbd39babd	-0.045344103
99	0xbe035361	-0.12824775
100	0x3d5c9000	0.053848267
101	0xbc6d78cf	-0.014494135
102	0x3e24adf2	0.1608198
103	0x3e1817e3	0.14852862
104	0x3e16d793	0.14730673
105	0x3cf132da	0.029443193
106	0xbdd59bc3	-0.104301
107	0xbe021f2e	-0.12707207
108	0x3d9dcc4a	0.07704981
109	0xbe22c95e	-0.15897128
110	0xbd7105e3	-0.058843505
111	0x3d5c20a2	0.05374206
112	0x3d63efca	0.055648603
113	0x3dfd280a	0.123611525
114	0xbd611561	-0.05495203
115	0x3d4a1b91	0.049342696
116	0xbd065b9d	-0.032802213
117	0xb924585b	-0.00015673174
118	0xbdd1862f	-0.102306716
119	0x3d71f8f1	0.0590753
120	0xbd30318d	-0.043016005
121	0xbdbfd21d	-0.09366248
122	0x3c5c3e1d	0.013442543
123	0x3d2f8442	0.04285074
124	0xbdece6bf	-0.11567449
125	0xbd362f23	-0.044478547
126	0x3d221198	0.03956756
127	0x3dccac51	0.09993804
128	0x3e134938	0.143834
129	0xbdad8a00	-0.08473587
130	0xbe568f74	-0.2095316
131	0xbbdd7e1c	-0.006759418
132	0xbe3601a7	-0.17774068
133	0x3bc0ee69	0.0058877957
134	0x3e1f73c8	0.15571511
135	0x3db5a8ec	0.0887011
136	0xbda6b05f	-0.08139109
137	0x3df89e8f	0.12139618
138	0xbdbb489a	-0.09144707
139	0xbc98e9c7	-0.018666161
140	0xbce65699	-0.028117465
141	0x3ceed260	0.029153049
142	0x3e211fc9	0.15734781
143	0xbd28acd7	-0.041180458
144	0x3ddb6371	0.10712326
145	0x3d73f119	0.0595561
146	0x3c9ba58c	0.018999837
147	0x3de2f60f	0.11082088
148	0x3cf22899	0.029560374
149	0x3d88a16a	0.06671412
150	0x3d9aab29	0.075521775
151	0xbd8ee3dd	-0.06977055
152	0x3dc7ab1c	0.097494334
153	0x3dc568cd	0.0963913
154	0xbde700c3	-0.11279442
155	0x3caa6131	0.020798298
156	0x3d206f6d	0.039168764
157	0x3d2ebf14	0.042662695
158	0x3d6f80f9	0.058472607
159	0xbd38da9a	-0.04513035
160	0xbe0d6608	-0.13808453
161	0x3e007075	0.12542899
162	0xbe00c589	-0.12575354
163	0x3c1727ca	0.009225795
164	0x3e3af78f	0.18258499
165	0xbc49d5c1	-0.012319029
166	0xbde4a174	-0.11163607
167	0xbe22cbd9	-0.15898074
168	0xbe21d077	-0.1580218
169	0xbd2cbd5a	-0.042172767
170	0xbba87839	-0.005141285
171	0xbe2c76ce	-0.16842195
172	0xbdcd9d6a	-0.1003979
173	0x3dd8fede	0.10595487
174	0xbdc4303d	-0.09579513
175	0xbd995eea	-0.074888065
176	0xbd75e13a	-0.060029246
177	0xbe48a88c	-0.19595546
178	0xbda7ff52	-0.08202995
179	0xbbedef98	-0.007261228
180	0xbb80c077	-0.0039291936
181	0x3e2f65e0	0.17128706
182	0xbddc8ca4	-0.107690126
183	0x3dbaf45d	0.0912864
184	0xbc995d44	-0.01872123
185	0x3d1e74f0	0.03868574
186	0x3e245616	0.16048464
187	0x3d0e885d	0.034798015
188	0xbdb8afdd	-0.09017918
189	0x3e0dbecc	0.13842314
190	0x3d9ee76d	0.07758985
191	0xbe57478a	-0.21023384
192	0x3e559b51	0.2086003
193	0xbc1af8a6	-0.0094586965
194	0x3dc04428	0.09388
195	0x3ced8d64	0.028998084
196	0xbe07a667	-0.13247071
197	0xbdc1adf5	-0.09457008
198	0x3ca7579e	0.020427521
199	0x3d843428	0.064552605

tae.tae_encoder.lstm_1.bias_hh_l0 f4 [200]
0	0xbd2912ce	-0.0412777
1	0x3e22a4e1	0.15883209
2	0x3e12b196	0.14325556
3	0xbdc8e48a	-0.09809215
4	0x3c1ca843	0.009561601
5	0xbc92f5e8	-0.017939523
6	0xbe031edd	-0.12804742
7	0x3e19ef87	0.15032779
8	0x3cd45762	0.025920574
9	0x3bcadecc	0.0061911102
10	0xbd9cb663	-0.07651975
11	0xbd479379	-0.048724625
12	0x3bb074ac	0.005385002
13	0x3dfa8d67	0.122340016
14	0xbb5471a9	-0.003241638
15	0x3d5045de	0.05084788
16	0xbd95e900	-0.07319832
17	0xbe02ef06	-0.12786493
18	0xbca36e7e	-0.019950148
19	0xbdbd4e2c	-0.09243426
20	0xbe26d677	-0.1629275
21	0xbe0143da	-0.1262354
22	0x3b8d8ac7	0.004319522
23	0xbd3de8a7	-0.046364453
24	0xbd31f916	-0.043450437
25	0xbdc1ab80	-0.09456539
26	0xbe146b6b	-0.14494102
27	0x3d06d98a	0.032922305
28	0xba978273	-0.0011559263
29	0xbdcf60ff	-0.101259224
30	0x3d34893c	0.04407619
31	0x3d37a51c	0.044835195
32	0xbbd7f691	-0.0065906723
33	0xbc805248	-0.015664235
34	0xbcc88099	-0.024475383
35	0x3df7f5f3	0.12107458
36	0xbcb06cad	-0.021536196
37	0xbd93e0d6	-0.072206184
38	0xbd44ba25	-0.048029084
39	0x3e113748	0.14181244
40	0x3dd80a19	0.10548801
41	0xbd42cad1	-0.047556702
42	0x3e44eef3	0.19231777
43	0xbe5a53db	-0.21321051
44	0x3d5b49fc	0.053537354
45	0x3cfef92c	0.031124674
46	0xbe3e590b	-0.18588655
47	0xbe0eba7e	-0.13938329
48	0x3d4c4359	0.049868915
49	0x3a823cfa	0.0009936385
50	0xbd607fe9	-0.054809485
51	0x3deae34a	0.11469133
52	0xbc0a95f0	-0.008458599
53	0x3da1abdc	0.07894108
54	0x3e29d14e	0.1658375
55	0xbda15c85	-0.07878975
56	0xbe12d6e8	-0.14339793
57	0xbcb85929	-0.022503452
58	0x3d2ff281	0.04295588
59	0x3e3d32bc	0.18476385
60	0x3d892701	0.066968925
61	0xbce14b17	-0.027501626
62	0xbe1d3943	-0.15353875
63	0xbd7f9951	-0.062402073
64	0xbe035a8a	-0.12827507
65	0x3d439b8e	0.04775577
66	0xbde10c91	-0.10988725
67	0x3ca41cc2	0.020033244
68	0xbd639988	-0.05556634
69	0x3d826625	0.06367139
70	0xbe23d0d5	-0.15997632
71	0xbd0f6dae	-0.035016708
72	0xbe21a604	-0.15785986
73	0xbde288e9	-0.1106127
74	0x3e3766aa	0.17910257
75	0x3d93f6cd	0.07224808
76	0xbdf5b1f3	-0.11996832
77	0xbd270d1f	-0.040783998
78	0x3d090470	0.033451498
79	0x3ca2b69f	0.019862471
80	0x3e47a78b	0.19497506
81	0xbd03eae0	-0.032206416
82	0xbdf7c805	-0.120986976
83	0x3aac1372	0.0013128354
84	0x3dfe13c2	0.12406112
85	0xbe38672d	-0.18008108
86	0xbc950ba7	-0.018194033
87	0x3dcc3f6f	0.099730365
88	0xbe1746c7	-0.14773093
89	0xbd9da580	-0.07697582
90	0x3dab9802	0.083786026
91	0x3c94494e	0.01810136
92	0x3c1eeb60	0.009699672
93	0xbe5104a1	-0.20411922
94	0x3d9f4823	0.07777431
95	0xbe3dc1b1	-0.18530919
96	0x3db3a6f1	0.08772076
97	0x3b6437bf	0.0034823266
98	0xbda94671	-0.08265389
99	0xbe1209b0	-0.14261508
100	0x3d12ea99	0.03586826
101	0xbe372664	-0.17885739
102	0xbcb01475	-0.02149413
103	0x3e24c5d6	0.16091093
104	0xbb9f0928	-0.0048533864
105	0x3d2b9ab0	0.04189557
106	0xbda2bd87	-0.07946306
107	0xbd954a6c	-0.072895855
108	0x3d01f278	0.031725377
109	0x3d6db704	0.058035865
110	0x3db3ce38	0.087795675
111	0xbc84ae53	-0.016196406
112	0x3d79fda5	0.06103291
113	0x3d6f633d	0.05844425
114	0x3db3dc87	0.08782297
115	0xbdb1a13f	-0.086733334
116	0x3c5d8800	0.013521194
117	0x3de3431a	0.11096783
118	0x3c9ebf58	0.01937835
119	0x3e1ca1a2	0.15296033
120	0xbd9b3506	-0.07578473
121	0x3e2deba2	0.16984418
122	0xbd103663	-0.035208117
123	0x3c2454ed	0.0100300135
124	0x3d212c0a	0.03934864
125	0x3ce97cca	0.028501887
126	0x3d4fcdb3	0.05073328
127	0x3cd60dbc	0.026129596
128	0x3d704f64	0.058669463
129	0x3d9101ff	0.07080459
130	0xbe50a909	-0.20376982
131	0x3d2cd928	0.042199284
132	0xbded88db	-0.11598369
133	0x3e35f851	0.17770506
134	0x3e558ec6	0.20855245
135	0xbd6bf37a	-0.057605244
136	0xbe2f9232	-0.17145613
137	0xbbf0a85a	-0.007344288
138	0xbd901c35	-0.0703663
139	0xbe16c61f	-0.14724015
140	0x3ddd5310	0.108068585
141	0x3da81bf4	0.08208457
142	0x3dc2c159	0.095095344
143	0xbc0f9447	-0.008763379
144	0x3e3e05bc	0.18556875
145	0x3d4ac396	0.04950293
146	0x3c0e5d80	0.008689284
147	0x3cdb3545	0.0267588
148	0xbd7938e2	-0.060845263
149	0xbd30c5b2	-0.043157287
150	0xbce96fd6	-0.02849571
151	0x3de43875	0.11143581
152	0x3dcd0c7c	0.10012147
153	0x3b8083c4	0.0039219577
154	0x3c1f34d6	0.009717187
155	0xbd25c8a7	-0.04047456
156	0x3c8d6fa8	0.017265156
157	0x3e309a17	0.1724628
158	0xbe24da0e	-0.16098806
159	0xbb832fca	-0.0040034996
160	0x3cb4360e	0.021998432
161	0xbe03d191	-0.12872912
162	0x3df9aeb8	0.12191528
163	0x3e27b333	0.16376953
164	0x3e0f8b4b	0.1401798
165	0xbd1fcce5	-0.039013762
166	0x3d458fff	0.04823303
167	0x3dbc9a8e	0.092091665
168	0xbe3e31f1	-0.18573739
169	0xbe078622	-0.13234761
170	0xbdae0625	-0.08497266
171	0x3d35eb10	0.044413626
172	0x3d99f275	0.07516948
173	0x3daf10ee	0.08548151
174	0x3dfce72b	0.12348779
175	0xbc0602de	-0.0081793945
176	0xbe61285e	-0.21988055
177	0xbc308751	-0.010774449
178	0x3dfa4700	0.122205734
179	0xbe16b3ad	-0.14716978
180	0x3de8b239	0.11362118
181	0x3d855b36	0.06511538
182	0x3d473a9a	0.04863987
183	0xbdca79cb	-0.098865114
184	0x3dc2f898	0.09520072
185	0x3e3dde18	0.18541753
186	0x3df37612	0.118877545
187	0xbd8fa746	-0.07014327
188	0xb9ae29cb	-0.00033219004
189	0xbd92f341	-0.07175303
190	0xbd892c6a	-0.066979244
191	0xbe33b7db	-0.17550604
192	0x3e72a1cb	0.23694532
193	0x3d6935bf	0.056936022
194	0x3e2b6e4d	0.16741295
195	0x3bbe9a64	0.0058167446
196	0xbd8f327f	-0.06992053
197	0x3d9894f8	0.074502885
198	0x3aa2dfed	0.0012426354
199	0xbe06717b	-0.13129227

tae.tae_encoder.lstm_1.weight_ih_l0_reverse f4 [200, 50]
0	0xbccd3e1e	-0.025054034
1	0x3d417440	0.047230005
2	0x3c7c5c4a	0.015402863
3	0x3d39852f	0.04529303
4	0xbdcc5f6f	-0.0997914
5	0xbe0fbf44	-0.14037806
6	0x3d84a27c	0.06476304
7	0x3c3938d7	0.011305056
8	0x3ceb418b	0.028717777
9	0xbdd4698c	-0.10371694
10	0x3e07551c	0.1321606
11	0x3dc3bc7e	0.095574364
12	0x3de4ced1	0.111722596
13	0xbe0c01e4	-0.13672596
14	0x3c95482c	0.01822289
15	0x3d42db21	0.04757226
16	0xbc6ea360	-0.014565319
17	0xbd93c6d9	-0.072156616
18	0xbdc9591a	-0.09831448
19	0x3d7aa5f6	0.06119343
20	0x3df450b9	0.11929459
21	0x3da2a683	0.07941916
22	0xbd21396d	-0.039361406
23	0x3ddc7a8f	0.10765564
24	0xbe16bc16	-0.14720187
25	0xbdeb7a66	-0.11497955
26	0x3d7ed8fc	0.06221865
27	0x3d9c01a7	0.07617503
28	0xbc32d126	-0.010914123
29	0x3b671433	0.0035259842
30	0x3cbf8210	0.023377448
31	0xbd765597	-0.06014022
32	0xbd6f4849	-0.058418546
33	0x3dc34f19	0.09536571
34	0xbddba52b	-0.10724863
35	0xbc17cf9f	-0.009265809
36	0x3d1a377a	0.037650563
37	0xbdf14aaa	-0.11781819
38	0xbdadb847	-0.08482414
39	0xbdde00d5	-0.108400024
40	0xbe0df2b8	-0.13862121
41	0x3db33089	0.08749492
42	0x3daa013b	0.08301016
43	0xbd44882d	-0.04798143
44	0xbd7bae59	-0.061445568
45	0xbdede385	-0.116156615
46	0xbe08a7dd	-0.13345285
47	0x3b19b417	0.002345329
48	0xbd396bd5	-0.045268852
49	0xbcfc28c0	-0.03078115
50	0xbdfa4cc4	-0.12221673
51	0xbcbff066	-0.02343006
52	0xbe25457e	-0.1613979
53	0x3c97af48	0.018516198
54	0xbe286ff1	-0.16448952
55	0xbe2906ef	-0.16506551
56	0xbe3f8fab	-0.18707149
57	0xbe47fac0	-0.19529247
58	0xbdc3a26f	-0.09552466
59	0xbdcb1a1f	-0.099170916
60	0x3cbc174c	0.022960328
61	0xbc4a3fa7	-0.012344277
62	0x3d23536e	0.039874487
63	0xbda84527	-0.08216315
64	0x3d79b66a	0.06096498
65	0x3c7e2f64	0.0155142285
66	0xbdee56ca	-0.116376474
67	0xbe2b923a	-0.16755
68	0xbd71557f	-0.058919426
69	0xbda531ff	-0.080661766
70	0xbdf5c979	-0.120013185
71	0xbc6a016b	-0.014282565
72	0xbe1b3404	-0.15156561
73	0xbd8c91b4	-0.06863728
74	0xbe379de9	-0.17931332
75	0x3d799b3d	0.060939062
76	0xbe1daa64	-0.1539703
77	0x3a7f1277	0.00097302295
78	0xb9a33b5a	-0.00031134003
79	0xbdc9e0c0	-0.09857321
80	0xbda96146	-0.082705066
81	0x3c7c32fd	0.015393016
82	0xbe37e67b	-0.17959015
83	0xbdbefdd5	-0.09325758
84	0x3d89f0c5	0.06735376
85	0xbd0ce8fd	-0.034401882
86	0xbe43ce00	-0.19121552
87	0xbdb6e6c1	-0.089307316
88	0x3c65b78c	0.014020812
89	0xbd73acd9	-0.059491012
90	0x3ccb520d	0.024819398
91	0xbd8df0d7	-0.06930702
92	0x3d89ac6f	0.06722342
93	0x3bcc6e57	0.0062387395
94	0xbdb2c6e1	-0.087293394
95	0xbddadc22	-0.10686518
96	0xbc871617	-0.016490025
97	0xbe4e9e40	-0.20177555
98	0x3d09709f	0.03355467
99	0x3d59ecc5	0.053204317
100	0xbd765fac	-0.060149834
101	0x3d7f12a1	0.062273625
102	0xbd8ff2f1	-0.07028759
103	0x3d44c70c	0.04804139
104	0x3d0a1770	0.033713758
105	0xbe2715a4	-0.16316849
106	0xbdbe417c	-0.09289834
107	0x3d2dca89	0.04242948
108	0xbd0af514	-0.03392513
109	0x3da85f39	0.08221287
110	0x3e043002	0.12908939
111	0xbd301e12	-0.042997427
112	0x3c9ca4db	0.019121578
113	0xbd019813	-0.03163917
114	0xbdf11208	-0.11771017
115	0xbdeef5c5	-0.116679706
116	0x3da20423	0.07910945
117	0xbdc7ffbc	-0.09765574
118	0x3daeae65	0.08529357
119	0x3d9b240f	0.07575237
120	0xbddf65c3	-0.109080814
121	0xb8fb616a	-0.000119867575
122	0x3dda794c	0.10667667
123	0x3d7738bf	0.06035685
124	0x3d38eafc	0.045145974
125	0xbd60360e	-0.05473905
126	0x3cb78b51	0.022405298
127	0xbdd17358	-0.10227078
128	0xbdddfe48	-0.10839516
129	0xba1da7d1	-0.00060140813
130	0x3d8219dc	0.063525885
131	0xbc1fdf23	-0.00975779
132	0xbd17d172	-0.037064977
133	0xbd2c4e0f	-0.04206663
134	0x3d362ba2	0.044475205
135	0x3d4c6125	0.04989733
136	0x3d19ec2a	0.03757874
137	0xbe03f017	-0.12884556
138	0xbe1f1f53	-0.15539293
139	0xbcc17832	-0.023616884
140	0xbdf4c963	-0.11952474
141	0xbc8a78c7	-0.016903294
142	0x3d08e074	0.03341718
143	0xbd8c9bfb	-0.068656884
144	0x3cae412c	0.02127131
145	0xbd8988e9	-0.06715567
146	0x3d9285ce	0.071544275
147	0x3c908b1a	0.017644454
148	0x3dcb49cc	0.09926185
149	0x3e11300e	0.14178488
150	0x3d6fc58d	0.05853801
151	0xbcac3103	-0.021019464
152	0x3e437717	0.19088398
153	0xbca97797	-0.020686908
154	0xbd081aae	-0.03322857
155	0xbc01cee8	-0.007922865
156	0xbe320d1b	-0.17387812
157	0x3da7e95a	0.08198805
158	0x3de0f4f2	0.109842196
159	0x3e2dc837	0.16970907
160	0x3d6fdc1a	0.058559515
161	0x3e541ff4	0.20715314
162	0xbddba3a5	-0.10724572
163	0xbd0af06e	-0.033920698
164	0x3cdabcb8	0.026701316
165	0xbdd2501d	-0.10269187
166	0x3be5d036	0.007013346
167	0x3d9c0d9b	0.076197825
168	0x3c50e0cb	0.012748907
169	0x3e0274b0	0.12739825
170	0x3d2db311	0.0424071
171	0xbd57a5e0	-0.052648425
172	0xbd90e197	-0.07074278
173	0x3d879735	0.06620637
174	0x3d2634fa	0.040577866
175	0xbd063e48	-0.03277424
176	0x3d8e9cdc	0.06963512
177	0xbdd80248	-0.1054731
178	0x3de8bf2d	0.11364589
179	0x3db0a235	0.086246885
180	0xbe30826a	-0.17237249
181	0x3e4d52cd	0.20051117
182	0x3e30a913	0.17251997
183	0x3dcebecf	0.100949876
184	0xbd00f63e	-0.031484835
185	0xbe031b4e	-0.12803385
186	0xbab15257	-0.0013528568
187	0x3d1f725d	0.038927425
188	0x3ce09150	0.02741304
189	0xbd97dd5f	-0.0741527
190	0x3d8d2223	0.06891277
191	0x3e01006b	0.12597816
192	0x3dda003f	0.10644578
193	0x3db07814	0.08616653
194	0x3d68fa2f	0.05687922
195	0xba9c6eef	-0.0011934916
196	0x3e134577	0.14381967
197	0x3e2eee5e	0.17083117
198	0x3dd5ddbd	0.10442684
199	0xbdbcc0db	-0.09216472
200	0xbce6ff93	-0.02819804
201	0xbd0e06d5	-0.034674484
202	0x3d861c82	0.06548406
203	0x3cc9012f	0.024536697
204	0xbe50b4f5	-0.2038153
205	0xbde5f6d9	-0.11228723
206	0x3c8125f0	0.01576516
207	0x3d45ca93	0.048288893
208	0xbd551883	-0.05202533
209	0x3d814cf8	0.06313509
210	0x3d8d83d4	0.0690991
211	0x3b968430	0.0045933947
212	0x3da304f8	0.07959932
213	0x3d94336c	0.072363704
214	0xbe2c6870	-0.16836715
215	0xbe252af6	-0.1612967
216	0xbdc25128	-0.094881356
217	0xbe14ee29	-0.14543976
218	0xbd6bb69c	-0.057547197
219	0x3ca7c21d	0.020478303
220	0xbd8c935d	-0.06864045
221	0xbde2358c	-0.110453695
222	0xbd5e9b76	-0.054347478
223	0x3d3ad684	0.045614734
224	0xbdee91a4	-0.116488725
225	0x3d12ca4e	0.035837464
226	0xbdb91575	-0.09037296
227	0xbe04976e	-0.12948391
228	0x3d602269	0.054720316
229	0xbdbde72d	-0.09272609
230	0x3ced8912	0.028996024
231	0x3e17f2b6	0.1483868
232	0xbc9ebb27	-0.01937635
233	0xbd60821e	-0.05481159
234	0xbbdf9bf7	-0.0068240124
235	0x3d4f631f	0.05063164
236	0x3ccfad47	0.02535118
237	0xbd8e5ec6	-0.0695167
238	0x3b032a86	0.002001436
239	0x3bb38898	0.0054789297
240	0x3d06dc03	0.032924663
241	0xbdc2918c	-0.09500417
242	0xbd4247a8	-0.047431618
243	0xbd42480e	-0.047431998
244	0x3e0c7386	0.13715944
245	0x3e020bbf	0.12699793
246	0xbd5e561c	-0.05428134
247	0x3d37736a	0.0447878
248	0x3dc1e626	0.094677255
249	0xbe42bc3e	-0.19017121
250	0x3c1556bd	0.009114918
251	0xbdc6d82f	-0.097092025
252	0xbe64144a	-0.22273365
253	0x3d0c4760	0.034247756
254	0xbcf5b8ea	-0.0299954
255	0x3d236fb4	0.03990145

tae.tae_encoder.lstm_1.weight_hh_l0_reverse f4 [200, 50]
0	0xbdd96b1f	-0.10616135
1	0xbd37a007	-0.04483035
2	0x3d5fae48	0.054609567
3	0x3db50c31	0.08840216
4	0xbc5e34e3	-0.013562414
5	0xbd8b4036	-0.06799357
6	0x3cca3e9d	0.02468806
7	0xbe39d468	-0.18147433
8	0x3cfd22a0	0.0309003
9	0xbdc5221f	-0.09625649
10	0x3d84215c	0.06451675
11	0x3bb03e31	0.0053785075
12	0x3dcafa2d	0.099109985
13	0xbde2ba7b	-0.110707246
14	0x3e3234f1	0.17403008
15	0xbd95bfa4	-0.07311943
16	0x3d82f1ce	0.06393777
17	0xbd0be6e1	-0.03415573
18	0x3d61a30f	0.055087145
19	0x3d7887c9	0.06067637
20	0xbd9e16db	-0.07719203
21	0xbd87fadb	-0.06639644
22	0x3e319203	0.17340855
23	0x3dd58e75	0.10427562
24	0xbc89ad3d	-0.01680624
25	0x3e2ee3ff	0.17079161
26	0x3d88f1b5	0.06686727
27	0x3c2a7cef	0.010405763
28	0x3dbbf41e	0.09177421
29	0xbd74f5b9	-0.059804652
30	0xbcdce26d	-0.026963437
31	0x3e30da6a	0.17270818
32	0xbddbc80d	-0.10731516
33	0xbceba12b	-0.028763374
34	0x3e2a7533	0.1664627
35	0xbd9ca591	-0.07648767
36	0xbe171114	-0.14752609
37	0xbc3ee0ac	-0.011650246
38	0x3d839e50	0.0642668
39	0xbda1d495	-0.07901875
40	0xbcb99fc1	-0.022659184
41	0xbcb86ddf	-0.022513328
42	0x3d8edd0b	0.06975754
43	0x3e0b840f	0.13624595
44	0x3c2aab9e	0.010416893
45	0x3d42451e	0.047429197
46	0xbe08216d	-0.13294001
47	0xbdd31706	-0.10307126
48	0xbd8711b2	-0.06595172
49	0xbc985838	-0.018596753
50	0xbc383bc1	-0.011244715
51	0xbcd4413a	-0.025910009
52	0xbdd6984b	-0.10478266
53	0xbe0e94a9	-0.13923897
54	0xbdc65d0b	-0.09685715
55	0x3d511cb2	0.051052757
56	0x3e02213f	0.12707995
57	0x3d85bd5f	0.0653026
58	0xbe1d45cc	-0.15358657
59	0xbcb45253	-0.022011911
60	0x3db1040c	0.0864335
61	0x3e429854	0.19003421
62	0x3e39b51c	0.18135494
63	0xbd4a3193	-0.049363684
64	0xbd605458	-0.054767936
65	0xbd9892ab	-0.0744985
66	0xbdeeae87	-0.11654382
67	0x3d4cbe85	0.04998638
68	0x3c9d98d7	0.019237919
69	0xbdf31250	-0.11868727
70	0xbdef1a5b	-0.11674949
71	0x3e135348	0.14387238
72	0x3ceb2e0e	0.028708484
73	0x3ce3909c	0.027778916
74	0xbc51cf29	-0.0128057385
75	0xbe153b37	-0.1457337
76	0x3e2fa29d	0.17151876
77	0x3d27ea03	0.040994655
78	0xbd52b755	-0.05144437
79	0xbe23f313	-0.16010694
80	0x3e10e194	0.14148551
81	0xbd2bdc5f	-0.04195821
82	0x3e128685	0.14309128
83	0xbd15d814	-0.03658302
84	0xbd0891e6	-0.033342265
85	0x3da88c97	0.082299404
86	0x3d61d666	0.055136107
87	0x3e384fae	0.17999145
88	0x3dee8886	0.116471335
89	0x3e0b8c4e	0.1362774
90	0x3df7b0c6	0.12094264
91	0xbd861ff6	-0.06549065
92	0x3cc1abdd	0.023641521
93	0xbe1f6736	-0.15566716
94	0x3dc433fd	0.095802285
95	0xbe19b5fc	-0.15010828
96	0x3bc629ab	0.0060474477
97	0xbd44e619	-0.048071
98	0x3d669fc9	0.056304727
99	0xb98572b0	-0.00025453186
100	0xbcf0b213	-0.029381787
101	0x3d0e663e	0.034765474
102	0x3da7b631	0.08189047
103	0xbdf27757	-0.118391685
104	0x3ab36147	0.0013685607
105	0xbde9c445	-0.114143886
106	0x3db26880	0.08711338
107	0x3e4f151d	0.20222898
108	0x3e35bbfa	0.17747489
109	0x3dd40a9d	0.10353587
110	0x3dea5d2b	0.11443552
111	0x3e75ec0e	0.24015829
112	0xbdd15d27	-0.102228455
113	0xbce357f0	-0.027751893
114	0x3bd5ed43	0.006528528
115	0x3c423dcc	0.011855554
116	0x3db0ee63	0.08639219
117	0x3d71e6de	0.059058063
118	0x3d5487b5	0.051887233
119	0x3d4e50f2	0.050370164
120	0xbe2e1af6	-0.17002472
121	0x3e05112e	0.12994835
122	0xbc224a7b	-0.009905453
123	0xbde1c482	-0.11023809
124	0x3dc342bb	0.09534212
125	0xbd7accb2	-0.06123037
126	0x3e1f834f	0.15577434
127	0x3df3fb40	0.119131565
128	0x3d43818c	0.047730967
129	0x3d8e4b0d	0.069479086
130	0x3d9e455b	0.07728072
131	0x3e0d85c0	0.13820553
132	0x3e1a10ed	0.15045519
133	0xbe4a4e53	-0.19756441
134	0xbd2ef70d	-0.042716075
135	0xbda27627	-0.07932692
136	0x3e5645a1	0.20924999
137	0x3e3bc46b	0.18336646
138	0xbd97ed5f	-0.07418322
139	0xbd309a7f	-0.04311609
140	0x3e33ed1c	0.17570919
141	0xbdd8e4cd	-0.10590515
142	0xbcbf8cb8	-0.02338253
143	0xbdf21a70	-0.11821449
144	0xbcea51aa	-0.028603394
145	0x3deb0ea3	0.11477401
146	0xbcf26a13	-0.029591596
147	0x3c92f046	0.017936837
148	0x3c970608	0.018435493
149	0x3e0ae9e8	0.1356579
150	0xbde603d1	-0.11231197
151	0x3e2cd8b8	0.16879547
152	0xbac0410a	-0.0014667821
153	0x3e24b421	0.16084339
154	0x3e0281a3	0.12744765
155	0x3e00b184	0.12567717
156	0xbe1d8b0e	-0.15385076
157	0xbe06162f	-0.130944
158	0xbd8d44e2	-0.06897904
159	0x3e06357f	0.13106345
160	0x3d88fd9d	0.06688998
161	0xbe23dce2	-0.16002229
162	0xbdd6f303	-0.104955696
163	0x3e09fc76	0.13475212
164	0xbde5340b	-0.11191567
165	0xbd166bc9	-0.036723886
166	0xbc05189c	-0.008123543
167	0x3ce6d798	0.028178975
168	0xbdc39f7a	-0.09551902
169	0xbdbece7a	-0.09316726
170	0x3e1e9441	0.15486242
171	0xbe4d51d3	-0.20050745
172	0xbd871522	-0.06595828
173	0xbe5b8e95	-0.2144111
174	0x3e1a9ef4	0.15099698
175	0xbd8a5c22	-0.06755854
176	0x3b5bf430	0.0033562295
177	0xbe20f7e6	-0.15719566
178	0x3e7092dd	0.23493524
179	0x3e24100c	0.16021746
180	0xbd729bc0	-0.059230566
181	0x3dd9231e	0.10602401
182	0xbd93c3ce	-0.07215081
183	0x3c7da749	0.015481778
184	0xbb635563	-0.0034688346
185	0xbe287f29	-0.16454758
186	0xbdec5f97	-0.1154167
187	0xbe393abd	-0.18088813
188	0xbe46669a	-0.19375077
189	0xbcd4df30	-0.02598533
190	0xbe0acca0	-0.1355462
191	0x3e27e27b	0.16394989
192	0x3ba4f3a1	0.0050339256
193	0x3db9189b	0.09037896
194	0xbd0f576d	-0.034995485
195	0x3d400e0f	0.046888407
196	0x3e3f7d85	0.18700226
197	0x3e1c8e8b	0.15288751
198	0xbdb3b285	-0.08774284
199	0xbdb8d156	-0.09024303
200	0x3e30beb1	0.17260243
201	0x3db35436	0.08756296
202	0xbdef0370	-0.116705775
203	0xbd059216	-0.03261002
204	0xbe38a018	-0.18029821
205	0x3d952817	0.07283037
206	0x3cf48a61	0.02985114
207	0x3e005347	0.12531768
208	0xbca85b69	-0.0205514
209	0x3d24fe02	0.040281303
210	0xbdcaf4f7	-0.099100046
211	0xbd7e488c	-0.062080905
212	0xbddb61fa	-0.10712047
213	0xbddd76f4	-0.10813704
214	0xbe081d8b	-0.1329252
215	0xbd4b7dae	-0.049680404
216	0xbdb4b303	-0.08823206
217	0xbddcd705	-0.10783199
218	0xbcba95bf	-0.022776483
219	0xbd44ec0b	-0.04807667
220	0x3e0675bc	0.1313085
221	0xbdaf6ab5	-0.085652746
222	0x3ddcfbc8	0.10790211
223	0x3d93b392	0.07211985
224	0x3b928900	0.004471898
225	0xbd8e2f49	-0.06942613
226	0xbd9b4bb9	-0.07582802
227	0x3d91efef	0.07125842
228	0x3dbdc3a4	0.09265831
229	0x3ce6ffe1	0.028198184
230	0xbbd6a0fc	-0.0065499526
231	0xbda54f7a	-0.080717996
232	0xbc374de7	-0.011188007
233	0x3d701ac9	0.058619294
234	0xbd8edea7	-0.06976061
235	0xbb46ba48	-0.0030323435
236	0xbddad48a	-0.1068507
237	0xbc64422e	-0.013931794
238	0x3c54b94a	0.0129836295
239	0xbd4e44cb	-0.050358575
240	0x3cb1ef6d	0.021720612
241	0x3d94a121	0.072572954
242	0x3d5e2963	0.05423869
243	0xbe08d575	-0.13362677
244	0x3d9b5829	0.075851746
245	0xbcd1ae01	-0.025595667
246	0x3df05832	0.11735572
247	0x3e32fbfb	0.17478935
248	0xbc841372	-0.016122553
249	0xbddf1251	-0.108921655
250	0x3e0823e8	0.13294947
251	0xbe3e7e19	-0.1860279
252	0x3e0569a7	0.13028584
253	0xbdacc6a9	-0.08436329
254	0x3bd1212a	0.0063821273
255	0xbce605a7	-0.028078867
